saved_model_schema_version: 1
meta_graphs {
  meta_info_def {
    stripped_op_list {
      op {
        name: "Add"
        input_arg {
          name: "x"
          type_attr: "T"
        }
        input_arg {
          name: "y"
          type_attr: "T"
        }
        output_arg {
          name: "z"
          type_attr: "T"
        }
        attr {
          name: "T"
          type: "type"
          allowed_values {
            list {
              type: DT_BFLOAT16
              type: DT_HALF
              type: DT_FLOAT
              type: DT_DOUBLE
              type: DT_UINT8
              type: DT_INT8
              type: DT_INT16
              type: DT_INT32
              type: DT_INT64
              type: DT_COMPLEX64
              type: DT_COMPLEX128
              type: DT_STRING
            }
          }
        }
      }
      op {
        name: "ArgMax"
        input_arg {
          name: "input"
          type_attr: "T"
        }
        input_arg {
          name: "dimension"
          type_attr: "Tidx"
        }
        output_arg {
          name: "output"
          type_attr: "output_type"
        }
        attr {
          name: "T"
          type: "type"
          allowed_values {
            list {
              type: DT_FLOAT
              type: DT_DOUBLE
              type: DT_INT32
              type: DT_UINT8
              type: DT_INT16
              type: DT_INT8
              type: DT_COMPLEX64
              type: DT_INT64
              type: DT_QINT8
              type: DT_QUINT8
              type: DT_QINT32
              type: DT_BFLOAT16
              type: DT_UINT16
              type: DT_COMPLEX128
              type: DT_HALF
              type: DT_UINT32
              type: DT_UINT64
            }
          }
        }
        attr {
          name: "Tidx"
          type: "type"
          default_value {
            type: DT_INT32
          }
          allowed_values {
            list {
              type: DT_INT32
              type: DT_INT64
            }
          }
        }
        attr {
          name: "output_type"
          type: "type"
          default_value {
            type: DT_INT64
          }
          allowed_values {
            list {
              type: DT_INT32
              type: DT_INT64
            }
          }
        }
      }
      op {
        name: "AssignVariableOp"
        input_arg {
          name: "resource"
          type: DT_RESOURCE
        }
        input_arg {
          name: "value"
          type_attr: "dtype"
        }
        attr {
          name: "dtype"
          type: "type"
        }
        is_stateful: true
      }
      op {
        name: "BatchMatMulV2"
        input_arg {
          name: "x"
          type_attr: "T"
        }
        input_arg {
          name: "y"
          type_attr: "T"
        }
        output_arg {
          name: "output"
          type_attr: "T"
        }
        attr {
          name: "T"
          type: "type"
          allowed_values {
            list {
              type: DT_BFLOAT16
              type: DT_HALF
              type: DT_FLOAT
              type: DT_DOUBLE
              type: DT_INT32
              type: DT_INT64
              type: DT_COMPLEX64
              type: DT_COMPLEX128
            }
          }
        }
        attr {
          name: "adj_x"
          type: "bool"
          default_value {
            b: false
          }
        }
        attr {
          name: "adj_y"
          type: "bool"
          default_value {
            b: false
          }
        }
      }
      op {
        name: "BiasAdd"
        input_arg {
          name: "value"
          type_attr: "T"
        }
        input_arg {
          name: "bias"
          type_attr: "T"
        }
        output_arg {
          name: "output"
          type_attr: "T"
        }
        attr {
          name: "T"
          type: "type"
          allowed_values {
            list {
              type: DT_FLOAT
              type: DT_DOUBLE
              type: DT_INT32
              type: DT_UINT8
              type: DT_INT16
              type: DT_INT8
              type: DT_COMPLEX64
              type: DT_INT64
              type: DT_QINT8
              type: DT_QUINT8
              type: DT_QINT32
              type: DT_BFLOAT16
              type: DT_UINT16
              type: DT_COMPLEX128
              type: DT_HALF
              type: DT_UINT32
              type: DT_UINT64
            }
          }
        }
        attr {
          name: "data_format"
          type: "string"
          default_value {
            s: "NHWC"
          }
          allowed_values {
            list {
              s: "NHWC"
              s: "NCHW"
            }
          }
        }
      }
      op {
        name: "Cast"
        input_arg {
          name: "x"
          type_attr: "SrcT"
        }
        output_arg {
          name: "y"
          type_attr: "DstT"
        }
        attr {
          name: "SrcT"
          type: "type"
        }
        attr {
          name: "DstT"
          type: "type"
        }
        attr {
          name: "Truncate"
          type: "bool"
          default_value {
            b: false
          }
        }
      }
      op {
        name: "ConcatV2"
        input_arg {
          name: "values"
          type_attr: "T"
          number_attr: "N"
        }
        input_arg {
          name: "axis"
          type_attr: "Tidx"
        }
        output_arg {
          name: "output"
          type_attr: "T"
        }
        attr {
          name: "N"
          type: "int"
          has_minimum: true
          minimum: 2
        }
        attr {
          name: "T"
          type: "type"
        }
        attr {
          name: "Tidx"
          type: "type"
          default_value {
            type: DT_INT32
          }
          allowed_values {
            list {
              type: DT_INT32
              type: DT_INT64
            }
          }
        }
      }
      op {
        name: "Const"
        output_arg {
          name: "output"
          type_attr: "dtype"
        }
        attr {
          name: "value"
          type: "tensor"
        }
        attr {
          name: "dtype"
          type: "type"
        }
      }
      op {
        name: "DiagPart"
        input_arg {
          name: "input"
          type_attr: "T"
        }
        output_arg {
          name: "diagonal"
          type_attr: "T"
        }
        attr {
          name: "T"
          type: "type"
          allowed_values {
            list {
              type: DT_BFLOAT16
              type: DT_HALF
              type: DT_FLOAT
              type: DT_DOUBLE
              type: DT_INT32
              type: DT_INT64
              type: DT_COMPLEX64
              type: DT_COMPLEX128
            }
          }
        }
      }
      op {
        name: "Enter"
        input_arg {
          name: "data"
          type_attr: "T"
        }
        output_arg {
          name: "output"
          type_attr: "T"
        }
        attr {
          name: "T"
          type: "type"
        }
        attr {
          name: "frame_name"
          type: "string"
        }
        attr {
          name: "is_constant"
          type: "bool"
          default_value {
            b: false
          }
        }
        attr {
          name: "parallel_iterations"
          type: "int"
          default_value {
            i: 10
          }
        }
      }
      op {
        name: "Equal"
        input_arg {
          name: "x"
          type_attr: "T"
        }
        input_arg {
          name: "y"
          type_attr: "T"
        }
        output_arg {
          name: "z"
          type: DT_BOOL
        }
        attr {
          name: "T"
          type: "type"
          allowed_values {
            list {
              type: DT_BFLOAT16
              type: DT_HALF
              type: DT_FLOAT
              type: DT_DOUBLE
              type: DT_UINT8
              type: DT_INT8
              type: DT_INT16
              type: DT_INT32
              type: DT_INT64
              type: DT_COMPLEX64
              type: DT_QUINT8
              type: DT_QINT8
              type: DT_QINT32
              type: DT_STRING
              type: DT_BOOL
              type: DT_COMPLEX128
            }
          }
        }
        is_commutative: true
      }
      op {
        name: "Exit"
        input_arg {
          name: "data"
          type_attr: "T"
        }
        output_arg {
          name: "output"
          type_attr: "T"
        }
        attr {
          name: "T"
          type: "type"
        }
      }
      op {
        name: "Exp"
        input_arg {
          name: "x"
          type_attr: "T"
        }
        output_arg {
          name: "y"
          type_attr: "T"
        }
        attr {
          name: "T"
          type: "type"
          allowed_values {
            list {
              type: DT_BFLOAT16
              type: DT_HALF
              type: DT_FLOAT
              type: DT_DOUBLE
              type: DT_COMPLEX64
              type: DT_COMPLEX128
            }
          }
        }
      }
      op {
        name: "ExpandDims"
        input_arg {
          name: "input"
          type_attr: "T"
        }
        input_arg {
          name: "dim"
          type_attr: "Tdim"
        }
        output_arg {
          name: "output"
          type_attr: "T"
        }
        attr {
          name: "T"
          type: "type"
        }
        attr {
          name: "Tdim"
          type: "type"
          default_value {
            type: DT_INT32
          }
          allowed_values {
            list {
              type: DT_INT32
              type: DT_INT64
            }
          }
        }
      }
      op {
        name: "Fill"
        input_arg {
          name: "dims"
          type_attr: "index_type"
        }
        input_arg {
          name: "value"
          type_attr: "T"
        }
        output_arg {
          name: "output"
          type_attr: "T"
        }
        attr {
          name: "T"
          type: "type"
        }
        attr {
          name: "index_type"
          type: "type"
          default_value {
            type: DT_INT32
          }
          allowed_values {
            list {
              type: DT_INT32
              type: DT_INT64
            }
          }
        }
      }
      op {
        name: "Identity"
        input_arg {
          name: "input"
          type_attr: "T"
        }
        output_arg {
          name: "output"
          type_attr: "T"
        }
        attr {
          name: "T"
          type: "type"
        }
      }
      op {
        name: "JiebaCut"
        input_arg {
          name: "sentence_in"
          type: DT_STRING
        }
        output_arg {
          name: "sentence_out"
          type: DT_STRING
        }
        attr {
          name: "dict_path"
          type: "string"
        }
        attr {
          name: "hmm_path"
          type: "string"
        }
        attr {
          name: "user_dict_path"
          type: "string"
        }
        attr {
          name: "idf_path"
          type: "string"
        }
        attr {
          name: "stop_word_path"
          type: "string"
        }
        attr {
          name: "hmm"
          type: "bool"
        }
      }
      op {
        name: "Less"
        input_arg {
          name: "x"
          type_attr: "T"
        }
        input_arg {
          name: "y"
          type_attr: "T"
        }
        output_arg {
          name: "z"
          type: DT_BOOL
        }
        attr {
          name: "T"
          type: "type"
          allowed_values {
            list {
              type: DT_FLOAT
              type: DT_DOUBLE
              type: DT_INT32
              type: DT_UINT8
              type: DT_INT16
              type: DT_INT8
              type: DT_INT64
              type: DT_BFLOAT16
              type: DT_UINT16
              type: DT_HALF
              type: DT_UINT32
              type: DT_UINT64
            }
          }
        }
      }
      op {
        name: "LogicalAnd"
        input_arg {
          name: "x"
          type: DT_BOOL
        }
        input_arg {
          name: "y"
          type: DT_BOOL
        }
        output_arg {
          name: "z"
          type: DT_BOOL
        }
        is_commutative: true
      }
      op {
        name: "LoopCond"
        input_arg {
          name: "input"
          type: DT_BOOL
        }
        output_arg {
          name: "output"
          type: DT_BOOL
        }
      }
      op {
        name: "MatMul"
        input_arg {
          name: "a"
          type_attr: "T"
        }
        input_arg {
          name: "b"
          type_attr: "T"
        }
        output_arg {
          name: "product"
          type_attr: "T"
        }
        attr {
          name: "transpose_a"
          type: "bool"
          default_value {
            b: false
          }
        }
        attr {
          name: "transpose_b"
          type: "bool"
          default_value {
            b: false
          }
        }
        attr {
          name: "T"
          type: "type"
          allowed_values {
            list {
              type: DT_BFLOAT16
              type: DT_HALF
              type: DT_FLOAT
              type: DT_DOUBLE
              type: DT_INT32
              type: DT_INT64
              type: DT_COMPLEX64
              type: DT_COMPLEX128
            }
          }
        }
      }
      op {
        name: "Maximum"
        input_arg {
          name: "x"
          type_attr: "T"
        }
        input_arg {
          name: "y"
          type_attr: "T"
        }
        output_arg {
          name: "z"
          type_attr: "T"
        }
        attr {
          name: "T"
          type: "type"
          allowed_values {
            list {
              type: DT_BFLOAT16
              type: DT_HALF
              type: DT_FLOAT
              type: DT_DOUBLE
              type: DT_INT32
              type: DT_INT64
            }
          }
        }
      }
      op {
        name: "Merge"
        input_arg {
          name: "inputs"
          type_attr: "T"
          number_attr: "N"
        }
        output_arg {
          name: "output"
          type_attr: "T"
        }
        output_arg {
          name: "value_index"
          type: DT_INT32
        }
        attr {
          name: "T"
          type: "type"
        }
        attr {
          name: "N"
          type: "int"
          has_minimum: true
          minimum: 1
        }
      }
      op {
        name: "MergeV2Checkpoints"
        input_arg {
          name: "checkpoint_prefixes"
          type: DT_STRING
        }
        input_arg {
          name: "destination_prefix"
          type: DT_STRING
        }
        attr {
          name: "delete_old_dirs"
          type: "bool"
          default_value {
            b: true
          }
        }
        is_stateful: true
      }
      op {
        name: "Minimum"
        input_arg {
          name: "x"
          type_attr: "T"
        }
        input_arg {
          name: "y"
          type_attr: "T"
        }
        output_arg {
          name: "z"
          type_attr: "T"
        }
        attr {
          name: "T"
          type: "type"
          allowed_values {
            list {
              type: DT_BFLOAT16
              type: DT_HALF
              type: DT_FLOAT
              type: DT_DOUBLE
              type: DT_INT32
              type: DT_INT64
            }
          }
        }
      }
      op {
        name: "Mul"
        input_arg {
          name: "x"
          type_attr: "T"
        }
        input_arg {
          name: "y"
          type_attr: "T"
        }
        output_arg {
          name: "z"
          type_attr: "T"
        }
        attr {
          name: "T"
          type: "type"
          allowed_values {
            list {
              type: DT_BFLOAT16
              type: DT_HALF
              type: DT_FLOAT
              type: DT_DOUBLE
              type: DT_UINT8
              type: DT_INT8
              type: DT_UINT16
              type: DT_INT16
              type: DT_INT32
              type: DT_INT64
              type: DT_COMPLEX64
              type: DT_COMPLEX128
            }
          }
        }
        is_commutative: true
      }
      op {
        name: "NextIteration"
        input_arg {
          name: "data"
          type_attr: "T"
        }
        output_arg {
          name: "output"
          type_attr: "T"
        }
        attr {
          name: "T"
          type: "type"
        }
      }
      op {
        name: "NoOp"
      }
      op {
        name: "NotEqual"
        input_arg {
          name: "x"
          type_attr: "T"
        }
        input_arg {
          name: "y"
          type_attr: "T"
        }
        output_arg {
          name: "z"
          type: DT_BOOL
        }
        attr {
          name: "T"
          type: "type"
          allowed_values {
            list {
              type: DT_BFLOAT16
              type: DT_HALF
              type: DT_FLOAT
              type: DT_DOUBLE
              type: DT_UINT8
              type: DT_INT8
              type: DT_INT16
              type: DT_INT32
              type: DT_INT64
              type: DT_COMPLEX64
              type: DT_QUINT8
              type: DT_QINT8
              type: DT_QINT32
              type: DT_STRING
              type: DT_BOOL
              type: DT_COMPLEX128
            }
          }
        }
        is_commutative: true
      }
      op {
        name: "Pack"
        input_arg {
          name: "values"
          type_attr: "T"
          number_attr: "N"
        }
        output_arg {
          name: "output"
          type_attr: "T"
        }
        attr {
          name: "N"
          type: "int"
          has_minimum: true
          minimum: 1
        }
        attr {
          name: "T"
          type: "type"
        }
        attr {
          name: "axis"
          type: "int"
          default_value {
            i: 0
          }
        }
      }
      op {
        name: "Pad"
        input_arg {
          name: "input"
          type_attr: "T"
        }
        input_arg {
          name: "paddings"
          type_attr: "Tpaddings"
        }
        output_arg {
          name: "output"
          type_attr: "T"
        }
        attr {
          name: "T"
          type: "type"
        }
        attr {
          name: "Tpaddings"
          type: "type"
          default_value {
            type: DT_INT32
          }
          allowed_values {
            list {
              type: DT_INT32
              type: DT_INT64
            }
          }
        }
      }
      op {
        name: "Placeholder"
        output_arg {
          name: "output"
          type_attr: "dtype"
        }
        attr {
          name: "dtype"
          type: "type"
        }
        attr {
          name: "shape"
          type: "shape"
          default_value {
            shape {
              unknown_rank: true
            }
          }
        }
      }
      op {
        name: "PlaceholderWithDefault"
        input_arg {
          name: "input"
          type_attr: "dtype"
        }
        output_arg {
          name: "output"
          type_attr: "dtype"
        }
        attr {
          name: "dtype"
          type: "type"
        }
        attr {
          name: "shape"
          type: "shape"
        }
      }
      op {
        name: "Qr"
        input_arg {
          name: "input"
          type_attr: "T"
        }
        output_arg {
          name: "q"
          type_attr: "T"
        }
        output_arg {
          name: "r"
          type_attr: "T"
        }
        attr {
          name: "full_matrices"
          type: "bool"
          default_value {
            b: false
          }
        }
        attr {
          name: "T"
          type: "type"
          allowed_values {
            list {
              type: DT_DOUBLE
              type: DT_FLOAT
              type: DT_HALF
              type: DT_COMPLEX64
              type: DT_COMPLEX128
            }
          }
        }
      }
      op {
        name: "RandomStandardNormal"
        input_arg {
          name: "shape"
          type_attr: "T"
        }
        output_arg {
          name: "output"
          type_attr: "dtype"
        }
        attr {
          name: "seed"
          type: "int"
          default_value {
            i: 0
          }
        }
        attr {
          name: "seed2"
          type: "int"
          default_value {
            i: 0
          }
        }
        attr {
          name: "dtype"
          type: "type"
          allowed_values {
            list {
              type: DT_HALF
              type: DT_BFLOAT16
              type: DT_FLOAT
              type: DT_DOUBLE
            }
          }
        }
        attr {
          name: "T"
          type: "type"
          allowed_values {
            list {
              type: DT_INT32
              type: DT_INT64
            }
          }
        }
        is_stateful: true
      }
      op {
        name: "RandomUniform"
        input_arg {
          name: "shape"
          type_attr: "T"
        }
        output_arg {
          name: "output"
          type_attr: "dtype"
        }
        attr {
          name: "seed"
          type: "int"
          default_value {
            i: 0
          }
        }
        attr {
          name: "seed2"
          type: "int"
          default_value {
            i: 0
          }
        }
        attr {
          name: "dtype"
          type: "type"
          allowed_values {
            list {
              type: DT_HALF
              type: DT_BFLOAT16
              type: DT_FLOAT
              type: DT_DOUBLE
            }
          }
        }
        attr {
          name: "T"
          type: "type"
          allowed_values {
            list {
              type: DT_INT32
              type: DT_INT64
            }
          }
        }
        is_stateful: true
      }
      op {
        name: "Range"
        input_arg {
          name: "start"
          type_attr: "Tidx"
        }
        input_arg {
          name: "limit"
          type_attr: "Tidx"
        }
        input_arg {
          name: "delta"
          type_attr: "Tidx"
        }
        output_arg {
          name: "output"
          type_attr: "Tidx"
        }
        attr {
          name: "Tidx"
          type: "type"
          default_value {
            type: DT_INT32
          }
          allowed_values {
            list {
              type: DT_BFLOAT16
              type: DT_FLOAT
              type: DT_DOUBLE
              type: DT_INT32
              type: DT_INT64
            }
          }
        }
      }
      op {
        name: "ReadVariableOp"
        input_arg {
          name: "resource"
          type: DT_RESOURCE
        }
        output_arg {
          name: "value"
          type_attr: "dtype"
        }
        attr {
          name: "dtype"
          type: "type"
        }
        is_stateful: true
      }
      op {
        name: "RealDiv"
        input_arg {
          name: "x"
          type_attr: "T"
        }
        input_arg {
          name: "y"
          type_attr: "T"
        }
        output_arg {
          name: "z"
          type_attr: "T"
        }
        attr {
          name: "T"
          type: "type"
          allowed_values {
            list {
              type: DT_BFLOAT16
              type: DT_HALF
              type: DT_FLOAT
              type: DT_DOUBLE
              type: DT_UINT8
              type: DT_INT8
              type: DT_UINT16
              type: DT_INT16
              type: DT_INT32
              type: DT_INT64
              type: DT_COMPLEX64
              type: DT_COMPLEX128
            }
          }
        }
      }
      op {
        name: "Reshape"
        input_arg {
          name: "tensor"
          type_attr: "T"
        }
        input_arg {
          name: "shape"
          type_attr: "Tshape"
        }
        output_arg {
          name: "output"
          type_attr: "T"
        }
        attr {
          name: "T"
          type: "type"
        }
        attr {
          name: "Tshape"
          type: "type"
          default_value {
            type: DT_INT32
          }
          allowed_values {
            list {
              type: DT_INT32
              type: DT_INT64
            }
          }
        }
      }
      op {
        name: "ResourceGather"
        input_arg {
          name: "resource"
          type: DT_RESOURCE
        }
        input_arg {
          name: "indices"
          type_attr: "Tindices"
        }
        output_arg {
          name: "output"
          type_attr: "dtype"
        }
        attr {
          name: "batch_dims"
          type: "int"
          default_value {
            i: 0
          }
        }
        attr {
          name: "validate_indices"
          type: "bool"
          default_value {
            b: true
          }
        }
        attr {
          name: "dtype"
          type: "type"
        }
        attr {
          name: "Tindices"
          type: "type"
          allowed_values {
            list {
              type: DT_INT32
              type: DT_INT64
            }
          }
        }
        is_stateful: true
      }
      op {
        name: "RestoreV2"
        input_arg {
          name: "prefix"
          type: DT_STRING
        }
        input_arg {
          name: "tensor_names"
          type: DT_STRING
        }
        input_arg {
          name: "shape_and_slices"
          type: DT_STRING
        }
        output_arg {
          name: "tensors"
          type_list_attr: "dtypes"
        }
        attr {
          name: "dtypes"
          type: "list(type)"
          has_minimum: true
          minimum: 1
        }
        is_stateful: true
      }
      op {
        name: "ReverseV2"
        input_arg {
          name: "tensor"
          type_attr: "T"
        }
        input_arg {
          name: "axis"
          type_attr: "Tidx"
        }
        output_arg {
          name: "output"
          type_attr: "T"
        }
        attr {
          name: "Tidx"
          type: "type"
          default_value {
            type: DT_INT32
          }
          allowed_values {
            list {
              type: DT_INT32
              type: DT_INT64
            }
          }
        }
        attr {
          name: "T"
          type: "type"
          allowed_values {
            list {
              type: DT_UINT8
              type: DT_INT8
              type: DT_UINT16
              type: DT_INT16
              type: DT_INT32
              type: DT_INT64
              type: DT_BOOL
              type: DT_BFLOAT16
              type: DT_HALF
              type: DT_FLOAT
              type: DT_DOUBLE
              type: DT_COMPLEX64
              type: DT_COMPLEX128
              type: DT_STRING
            }
          }
        }
      }
      op {
        name: "SaveV2"
        input_arg {
          name: "prefix"
          type: DT_STRING
        }
        input_arg {
          name: "tensor_names"
          type: DT_STRING
        }
        input_arg {
          name: "shape_and_slices"
          type: DT_STRING
        }
        input_arg {
          name: "tensors"
          type_list_attr: "dtypes"
        }
        attr {
          name: "dtypes"
          type: "list(type)"
          has_minimum: true
          minimum: 1
        }
        is_stateful: true
      }
      op {
        name: "ScatterNd"
        input_arg {
          name: "indices"
          type_attr: "Tindices"
        }
        input_arg {
          name: "updates"
          type_attr: "T"
        }
        input_arg {
          name: "shape"
          type_attr: "Tindices"
        }
        output_arg {
          name: "output"
          type_attr: "T"
        }
        attr {
          name: "T"
          type: "type"
        }
        attr {
          name: "Tindices"
          type: "type"
          allowed_values {
            list {
              type: DT_INT32
              type: DT_INT64
            }
          }
        }
      }
      op {
        name: "Select"
        input_arg {
          name: "condition"
          type: DT_BOOL
        }
        input_arg {
          name: "t"
          type_attr: "T"
        }
        input_arg {
          name: "e"
          type_attr: "T"
        }
        output_arg {
          name: "output"
          type_attr: "T"
        }
        attr {
          name: "T"
          type: "type"
        }
      }
      op {
        name: "SentenceToIds"
        input_arg {
          name: "sentence_in"
          type: DT_STRING
        }
        output_arg {
          name: "token_ids"
          type: DT_INT32
        }
        output_arg {
          name: "paddings"
          type: DT_FLOAT
        }
        attr {
          name: "maxlen"
          type: "int"
          default_value {
            i: 300
          }
        }
        attr {
          name: "pad_to_maxlen"
          type: "bool"
          default_value {
            b: true
          }
        }
        attr {
          name: "vocab_filepath"
          type: "string"
        }
        attr {
          name: "load_token_ids_from_vocab"
          type: "bool"
          default_value {
            b: true
          }
        }
        attr {
          name: "delimiter"
          type: "string"
          default_value {
            s: " "
          }
        }
        attr {
          name: "pad_id"
          type: "int"
          default_value {
            i: -1
          }
        }
        attr {
          name: "check_tokens"
          type: "bool"
          default_value {
            b: true
          }
        }
      }
      op {
        name: "Shape"
        input_arg {
          name: "input"
          type_attr: "T"
        }
        output_arg {
          name: "output"
          type_attr: "out_type"
        }
        attr {
          name: "T"
          type: "type"
        }
        attr {
          name: "out_type"
          type: "type"
          default_value {
            type: DT_INT32
          }
          allowed_values {
            list {
              type: DT_INT32
              type: DT_INT64
            }
          }
        }
      }
      op {
        name: "ShardedFilename"
        input_arg {
          name: "basename"
          type: DT_STRING
        }
        input_arg {
          name: "shard"
          type: DT_INT32
        }
        input_arg {
          name: "num_shards"
          type: DT_INT32
        }
        output_arg {
          name: "filename"
          type: DT_STRING
        }
      }
      op {
        name: "Sign"
        input_arg {
          name: "x"
          type_attr: "T"
        }
        output_arg {
          name: "y"
          type_attr: "T"
        }
        attr {
          name: "T"
          type: "type"
          allowed_values {
            list {
              type: DT_BFLOAT16
              type: DT_HALF
              type: DT_FLOAT
              type: DT_DOUBLE
              type: DT_INT32
              type: DT_INT64
              type: DT_COMPLEX64
              type: DT_COMPLEX128
            }
          }
        }
      }
      op {
        name: "Softmax"
        input_arg {
          name: "logits"
          type_attr: "T"
        }
        output_arg {
          name: "softmax"
          type_attr: "T"
        }
        attr {
          name: "T"
          type: "type"
          allowed_values {
            list {
              type: DT_HALF
              type: DT_BFLOAT16
              type: DT_FLOAT
              type: DT_DOUBLE
            }
          }
        }
      }
      op {
        name: "SplitV"
        input_arg {
          name: "value"
          type_attr: "T"
        }
        input_arg {
          name: "size_splits"
          type_attr: "Tlen"
        }
        input_arg {
          name: "split_dim"
          type: DT_INT32
        }
        output_arg {
          name: "output"
          type_attr: "T"
          number_attr: "num_split"
        }
        attr {
          name: "num_split"
          type: "int"
          has_minimum: true
          minimum: 1
        }
        attr {
          name: "T"
          type: "type"
        }
        attr {
          name: "Tlen"
          type: "type"
          default_value {
            type: DT_INT64
          }
          allowed_values {
            list {
              type: DT_INT32
              type: DT_INT64
            }
          }
        }
      }
      op {
        name: "Squeeze"
        input_arg {
          name: "input"
          type_attr: "T"
        }
        output_arg {
          name: "output"
          type_attr: "T"
        }
        attr {
          name: "T"
          type: "type"
        }
        attr {
          name: "squeeze_dims"
          type: "list(int)"
          default_value {
            list {
            }
          }
          has_minimum: true
        }
      }
      op {
        name: "StridedSlice"
        input_arg {
          name: "input"
          type_attr: "T"
        }
        input_arg {
          name: "begin"
          type_attr: "Index"
        }
        input_arg {
          name: "end"
          type_attr: "Index"
        }
        input_arg {
          name: "strides"
          type_attr: "Index"
        }
        output_arg {
          name: "output"
          type_attr: "T"
        }
        attr {
          name: "T"
          type: "type"
        }
        attr {
          name: "Index"
          type: "type"
          allowed_values {
            list {
              type: DT_INT32
              type: DT_INT64
            }
          }
        }
        attr {
          name: "begin_mask"
          type: "int"
          default_value {
            i: 0
          }
        }
        attr {
          name: "end_mask"
          type: "int"
          default_value {
            i: 0
          }
        }
        attr {
          name: "ellipsis_mask"
          type: "int"
          default_value {
            i: 0
          }
        }
        attr {
          name: "new_axis_mask"
          type: "int"
          default_value {
            i: 0
          }
        }
        attr {
          name: "shrink_axis_mask"
          type: "int"
          default_value {
            i: 0
          }
        }
      }
      op {
        name: "StringJoin"
        input_arg {
          name: "inputs"
          type: DT_STRING
          number_attr: "N"
        }
        output_arg {
          name: "output"
          type: DT_STRING
        }
        attr {
          name: "N"
          type: "int"
          has_minimum: true
          minimum: 1
        }
        attr {
          name: "separator"
          type: "string"
          default_value {
            s: ""
          }
        }
      }
      op {
        name: "Sub"
        input_arg {
          name: "x"
          type_attr: "T"
        }
        input_arg {
          name: "y"
          type_attr: "T"
        }
        output_arg {
          name: "z"
          type_attr: "T"
        }
        attr {
          name: "T"
          type: "type"
          allowed_values {
            list {
              type: DT_BFLOAT16
              type: DT_HALF
              type: DT_FLOAT
              type: DT_DOUBLE
              type: DT_UINT8
              type: DT_INT8
              type: DT_UINT16
              type: DT_INT16
              type: DT_INT32
              type: DT_INT64
              type: DT_COMPLEX64
              type: DT_COMPLEX128
            }
          }
        }
      }
      op {
        name: "Sum"
        input_arg {
          name: "input"
          type_attr: "T"
        }
        input_arg {
          name: "reduction_indices"
          type_attr: "Tidx"
        }
        output_arg {
          name: "output"
          type_attr: "T"
        }
        attr {
          name: "keep_dims"
          type: "bool"
          default_value {
            b: false
          }
        }
        attr {
          name: "T"
          type: "type"
          allowed_values {
            list {
              type: DT_FLOAT
              type: DT_DOUBLE
              type: DT_INT32
              type: DT_UINT8
              type: DT_INT16
              type: DT_INT8
              type: DT_COMPLEX64
              type: DT_INT64
              type: DT_QINT8
              type: DT_QUINT8
              type: DT_QINT32
              type: DT_BFLOAT16
              type: DT_UINT16
              type: DT_COMPLEX128
              type: DT_HALF
              type: DT_UINT32
              type: DT_UINT64
            }
          }
        }
        attr {
          name: "Tidx"
          type: "type"
          default_value {
            type: DT_INT32
          }
          allowed_values {
            list {
              type: DT_INT32
              type: DT_INT64
            }
          }
        }
      }
      op {
        name: "Switch"
        input_arg {
          name: "data"
          type_attr: "T"
        }
        input_arg {
          name: "pred"
          type: DT_BOOL
        }
        output_arg {
          name: "output_false"
          type_attr: "T"
        }
        output_arg {
          name: "output_true"
          type_attr: "T"
        }
        attr {
          name: "T"
          type: "type"
        }
      }
      op {
        name: "Tanh"
        input_arg {
          name: "x"
          type_attr: "T"
        }
        output_arg {
          name: "y"
          type_attr: "T"
        }
        attr {
          name: "T"
          type: "type"
          allowed_values {
            list {
              type: DT_BFLOAT16
              type: DT_HALF
              type: DT_FLOAT
              type: DT_DOUBLE
              type: DT_COMPLEX64
              type: DT_COMPLEX128
            }
          }
        }
      }
      op {
        name: "TensorArrayGatherV3"
        input_arg {
          name: "handle"
          type: DT_RESOURCE
        }
        input_arg {
          name: "indices"
          type: DT_INT32
        }
        input_arg {
          name: "flow_in"
          type: DT_FLOAT
        }
        output_arg {
          name: "value"
          type_attr: "dtype"
        }
        attr {
          name: "dtype"
          type: "type"
        }
        attr {
          name: "element_shape"
          type: "shape"
          default_value {
            shape {
              unknown_rank: true
            }
          }
        }
        is_stateful: true
      }
      op {
        name: "TensorArrayReadV3"
        input_arg {
          name: "handle"
          type: DT_RESOURCE
        }
        input_arg {
          name: "index"
          type: DT_INT32
        }
        input_arg {
          name: "flow_in"
          type: DT_FLOAT
        }
        output_arg {
          name: "value"
          type_attr: "dtype"
        }
        attr {
          name: "dtype"
          type: "type"
        }
        is_stateful: true
      }
      op {
        name: "TensorArrayScatterV3"
        input_arg {
          name: "handle"
          type: DT_RESOURCE
        }
        input_arg {
          name: "indices"
          type: DT_INT32
        }
        input_arg {
          name: "value"
          type_attr: "T"
        }
        input_arg {
          name: "flow_in"
          type: DT_FLOAT
        }
        output_arg {
          name: "flow_out"
          type: DT_FLOAT
        }
        attr {
          name: "T"
          type: "type"
        }
        is_stateful: true
      }
      op {
        name: "TensorArraySizeV3"
        input_arg {
          name: "handle"
          type: DT_RESOURCE
        }
        input_arg {
          name: "flow_in"
          type: DT_FLOAT
        }
        output_arg {
          name: "size"
          type: DT_INT32
        }
        is_stateful: true
      }
      op {
        name: "TensorArrayV3"
        input_arg {
          name: "size"
          type: DT_INT32
        }
        output_arg {
          name: "handle"
          type: DT_RESOURCE
        }
        output_arg {
          name: "flow"
          type: DT_FLOAT
        }
        attr {
          name: "dtype"
          type: "type"
        }
        attr {
          name: "element_shape"
          type: "shape"
          default_value {
            shape {
              unknown_rank: true
            }
          }
        }
        attr {
          name: "dynamic_size"
          type: "bool"
          default_value {
            b: false
          }
        }
        attr {
          name: "clear_after_read"
          type: "bool"
          default_value {
            b: true
          }
        }
        attr {
          name: "identical_element_shapes"
          type: "bool"
          default_value {
            b: false
          }
        }
        attr {
          name: "tensor_array_name"
          type: "string"
          default_value {
            s: ""
          }
        }
        is_stateful: true
      }
      op {
        name: "TensorArrayWriteV3"
        input_arg {
          name: "handle"
          type: DT_RESOURCE
        }
        input_arg {
          name: "index"
          type: DT_INT32
        }
        input_arg {
          name: "value"
          type_attr: "T"
        }
        input_arg {
          name: "flow_in"
          type: DT_FLOAT
        }
        output_arg {
          name: "flow_out"
          type: DT_FLOAT
        }
        attr {
          name: "T"
          type: "type"
        }
        is_stateful: true
      }
      op {
        name: "Tile"
        input_arg {
          name: "input"
          type_attr: "T"
        }
        input_arg {
          name: "multiples"
          type_attr: "Tmultiples"
        }
        output_arg {
          name: "output"
          type_attr: "T"
        }
        attr {
          name: "T"
          type: "type"
        }
        attr {
          name: "Tmultiples"
          type: "type"
          default_value {
            type: DT_INT32
          }
          allowed_values {
            list {
              type: DT_INT32
              type: DT_INT64
            }
          }
        }
      }
      op {
        name: "Transpose"
        input_arg {
          name: "x"
          type_attr: "T"
        }
        input_arg {
          name: "perm"
          type_attr: "Tperm"
        }
        output_arg {
          name: "y"
          type_attr: "T"
        }
        attr {
          name: "T"
          type: "type"
        }
        attr {
          name: "Tperm"
          type: "type"
          default_value {
            type: DT_INT32
          }
          allowed_values {
            list {
              type: DT_INT32
              type: DT_INT64
            }
          }
        }
      }
      op {
        name: "VarHandleOp"
        output_arg {
          name: "resource"
          type: DT_RESOURCE
        }
        attr {
          name: "container"
          type: "string"
          default_value {
            s: ""
          }
        }
        attr {
          name: "shared_name"
          type: "string"
          default_value {
            s: ""
          }
        }
        attr {
          name: "dtype"
          type: "type"
        }
        attr {
          name: "shape"
          type: "shape"
        }
        is_stateful: true
      }
      op {
        name: "VarIsInitializedOp"
        input_arg {
          name: "resource"
          type: DT_RESOURCE
        }
        output_arg {
          name: "is_initialized"
          type: DT_BOOL
        }
        is_stateful: true
      }
      op {
        name: "Where"
        input_arg {
          name: "input"
          type_attr: "T"
        }
        output_arg {
          name: "index"
          type: DT_INT64
        }
        attr {
          name: "T"
          type: "type"
          default_value {
            type: DT_BOOL
          }
          allowed_values {
            list {
              type: DT_FLOAT
              type: DT_DOUBLE
              type: DT_INT32
              type: DT_UINT8
              type: DT_INT16
              type: DT_INT8
              type: DT_COMPLEX64
              type: DT_INT64
              type: DT_QINT8
              type: DT_QUINT8
              type: DT_QINT32
              type: DT_BFLOAT16
              type: DT_UINT16
              type: DT_COMPLEX128
              type: DT_HALF
              type: DT_UINT32
              type: DT_UINT64
              type: DT_BOOL
            }
          }
        }
      }
    }
    tags: "serve"
    tensorflow_version: "1.14.0"
    tensorflow_git_version: "v1.14.0-rc1-22-gaf24dc91b5"
    stripped_default_attrs: true
  }
  graph_def {
    node {
      name: "input_sentence"
      op: "Placeholder"
      attr {
        key: "_output_shapes"
        value {
          list {
            shape {
              dim {
                size: -1
              }
            }
          }
        }
      }
      attr {
        key: "dtype"
        value {
          type: DT_STRING
        }
      }
      attr {
        key: "shape"
        value {
          shape {
            dim {
              size: -1
            }
          }
        }
      }
    }
    node {
      name: "JiebaCut"
      op: "JiebaCut"
      input: "input_sentence"
      attr {
        key: "_output_shapes"
        value {
          list {
            shape {
              dim {
                size: -1
              }
            }
          }
        }
      }
      attr {
        key: "dict_path"
        value {
          s: "/delta/./tools/cppjieba/dict/jieba.dict.utf8"
        }
      }
      attr {
        key: "hmm"
        value {
          b: true
        }
      }
      attr {
        key: "hmm_path"
        value {
          s: "/delta/./tools/cppjieba/dict/hmm_model.utf8"
        }
      }
      attr {
        key: "idf_path"
        value {
          s: "/delta/./tools/cppjieba/dict/idf.utf8"
        }
      }
      attr {
        key: "stop_word_path"
        value {
          s: "/delta/./tools/cppjieba/dict/stop_words.utf8"
        }
      }
      attr {
        key: "user_dict_path"
        value {
          s: "/delta/./tools/cppjieba/dict/user.dict.utf8"
        }
      }
    }
    node {
      name: "SentenceToIds"
      op: "SentenceToIds"
      input: "JiebaCut"
      attr {
        key: "_output_shapes"
        value {
          list {
            shape {
              dim {
                size: -1
              }
              dim {
                size: 1024
              }
            }
            shape {
              dim {
                size: -1
              }
              dim {
                size: 1024
              }
            }
          }
        }
      }
      attr {
        key: "maxlen"
        value {
          i: 1024
        }
      }
      attr {
        key: "pad_id"
        value {
          i: 0
        }
      }
      attr {
        key: "vocab_filepath"
        value {
          s: "/delta/egs/mock_text_cls_data/text_cls/v1/data/text_vocab.split_by_line_mark.txt"
        }
      }
    }
    node {
      name: "map/Shape"
      op: "Shape"
      input: "SentenceToIds"
      attr {
        key: "T"
        value {
          type: DT_INT32
        }
      }
      attr {
        key: "_output_shapes"
        value {
          list {
            shape {
              dim {
                size: 2
              }
            }
          }
        }
      }
    }
    node {
      name: "map/strided_slice/stack"
      op: "Const"
      attr {
        key: "_output_shapes"
        value {
          list {
            shape {
              dim {
                size: 1
              }
            }
          }
        }
      }
      attr {
        key: "dtype"
        value {
          type: DT_INT32
        }
      }
      attr {
        key: "value"
        value {
          tensor {
            dtype: DT_INT32
            tensor_shape {
              dim {
                size: 1
              }
            }
            int_val: 0
          }
        }
      }
    }
    node {
      name: "map/strided_slice/stack_1"
      op: "Const"
      attr {
        key: "_output_shapes"
        value {
          list {
            shape {
              dim {
                size: 1
              }
            }
          }
        }
      }
      attr {
        key: "dtype"
        value {
          type: DT_INT32
        }
      }
      attr {
        key: "value"
        value {
          tensor {
            dtype: DT_INT32
            tensor_shape {
              dim {
                size: 1
              }
            }
            int_val: 1
          }
        }
      }
    }
    node {
      name: "map/strided_slice/stack_2"
      op: "Const"
      attr {
        key: "_output_shapes"
        value {
          list {
            shape {
              dim {
                size: 1
              }
            }
          }
        }
      }
      attr {
        key: "dtype"
        value {
          type: DT_INT32
        }
      }
      attr {
        key: "value"
        value {
          tensor {
            dtype: DT_INT32
            tensor_shape {
              dim {
                size: 1
              }
            }
            int_val: 1
          }
        }
      }
    }
    node {
      name: "map/strided_slice"
      op: "StridedSlice"
      input: "map/Shape"
      input: "map/strided_slice/stack"
      input: "map/strided_slice/stack_1"
      input: "map/strided_slice/stack_2"
      attr {
        key: "Index"
        value {
          type: DT_INT32
        }
      }
      attr {
        key: "T"
        value {
          type: DT_INT32
        }
      }
      attr {
        key: "_output_shapes"
        value {
          list {
            shape {
            }
          }
        }
      }
      attr {
        key: "shrink_axis_mask"
        value {
          i: 1
        }
      }
    }
    node {
      name: "map/TensorArray"
      op: "TensorArrayV3"
      input: "map/strided_slice"
      attr {
        key: "_output_shapes"
        value {
          list {
            shape {
              dim {
                size: 2
              }
            }
            shape {
            }
          }
        }
      }
      attr {
        key: "dtype"
        value {
          type: DT_INT32
        }
      }
      attr {
        key: "identical_element_shapes"
        value {
          b: true
        }
      }
    }
    node {
      name: "map/TensorArrayUnstack/Shape"
      op: "Shape"
      input: "SentenceToIds"
      attr {
        key: "T"
        value {
          type: DT_INT32
        }
      }
      attr {
        key: "_output_shapes"
        value {
          list {
            shape {
              dim {
                size: 2
              }
            }
          }
        }
      }
    }
    node {
      name: "map/TensorArrayUnstack/strided_slice/stack"
      op: "Const"
      attr {
        key: "_output_shapes"
        value {
          list {
            shape {
              dim {
                size: 1
              }
            }
          }
        }
      }
      attr {
        key: "dtype"
        value {
          type: DT_INT32
        }
      }
      attr {
        key: "value"
        value {
          tensor {
            dtype: DT_INT32
            tensor_shape {
              dim {
                size: 1
              }
            }
            int_val: 0
          }
        }
      }
    }
    node {
      name: "map/TensorArrayUnstack/strided_slice/stack_1"
      op: "Const"
      attr {
        key: "_output_shapes"
        value {
          list {
            shape {
              dim {
                size: 1
              }
            }
          }
        }
      }
      attr {
        key: "dtype"
        value {
          type: DT_INT32
        }
      }
      attr {
        key: "value"
        value {
          tensor {
            dtype: DT_INT32
            tensor_shape {
              dim {
                size: 1
              }
            }
            int_val: 1
          }
        }
      }
    }
    node {
      name: "map/TensorArrayUnstack/strided_slice/stack_2"
      op: "Const"
      attr {
        key: "_output_shapes"
        value {
          list {
            shape {
              dim {
                size: 1
              }
            }
          }
        }
      }
      attr {
        key: "dtype"
        value {
          type: DT_INT32
        }
      }
      attr {
        key: "value"
        value {
          tensor {
            dtype: DT_INT32
            tensor_shape {
              dim {
                size: 1
              }
            }
            int_val: 1
          }
        }
      }
    }
    node {
      name: "map/TensorArrayUnstack/strided_slice"
      op: "StridedSlice"
      input: "map/TensorArrayUnstack/Shape"
      input: "map/TensorArrayUnstack/strided_slice/stack"
      input: "map/TensorArrayUnstack/strided_slice/stack_1"
      input: "map/TensorArrayUnstack/strided_slice/stack_2"
      attr {
        key: "Index"
        value {
          type: DT_INT32
        }
      }
      attr {
        key: "T"
        value {
          type: DT_INT32
        }
      }
      attr {
        key: "_output_shapes"
        value {
          list {
            shape {
            }
          }
        }
      }
      attr {
        key: "shrink_axis_mask"
        value {
          i: 1
        }
      }
    }
    node {
      name: "map/TensorArrayUnstack/range/start"
      op: "Const"
      attr {
        key: "_output_shapes"
        value {
          list {
            shape {
            }
          }
        }
      }
      attr {
        key: "dtype"
        value {
          type: DT_INT32
        }
      }
      attr {
        key: "value"
        value {
          tensor {
            dtype: DT_INT32
            tensor_shape {
            }
            int_val: 0
          }
        }
      }
    }
    node {
      name: "map/TensorArrayUnstack/range/delta"
      op: "Const"
      attr {
        key: "_output_shapes"
        value {
          list {
            shape {
            }
          }
        }
      }
      attr {
        key: "dtype"
        value {
          type: DT_INT32
        }
      }
      attr {
        key: "value"
        value {
          tensor {
            dtype: DT_INT32
            tensor_shape {
            }
            int_val: 1
          }
        }
      }
    }
    node {
      name: "map/TensorArrayUnstack/range"
      op: "Range"
      input: "map/TensorArrayUnstack/range/start"
      input: "map/TensorArrayUnstack/strided_slice"
      input: "map/TensorArrayUnstack/range/delta"
      attr {
        key: "_output_shapes"
        value {
          list {
            shape {
              dim {
                size: -1
              }
            }
          }
        }
      }
    }
    node {
      name: "map/TensorArrayUnstack/TensorArrayScatter/TensorArrayScatterV3"
      op: "TensorArrayScatterV3"
      input: "map/TensorArray"
      input: "map/TensorArrayUnstack/range"
      input: "SentenceToIds"
      input: "map/TensorArray:1"
      attr {
        key: "T"
        value {
          type: DT_INT32
        }
      }
      attr {
        key: "_class"
        value {
          list {
            s: "loc:@SentenceToIds"
          }
        }
      }
      attr {
        key: "_output_shapes"
        value {
          list {
            shape {
            }
          }
        }
      }
    }
    node {
      name: "map/Const"
      op: "Const"
      attr {
        key: "_output_shapes"
        value {
          list {
            shape {
            }
          }
        }
      }
      attr {
        key: "dtype"
        value {
          type: DT_INT32
        }
      }
      attr {
        key: "value"
        value {
          tensor {
            dtype: DT_INT32
            tensor_shape {
            }
            int_val: 0
          }
        }
      }
    }
    node {
      name: "map/TensorArray_1"
      op: "TensorArrayV3"
      input: "map/strided_slice"
      attr {
        key: "_output_shapes"
        value {
          list {
            shape {
              dim {
                size: 2
              }
            }
            shape {
            }
          }
        }
      }
      attr {
        key: "dtype"
        value {
          type: DT_INT32
        }
      }
      attr {
        key: "identical_element_shapes"
        value {
          b: true
        }
      }
    }
    node {
      name: "map/while/iteration_counter"
      op: "Const"
      attr {
        key: "_output_shapes"
        value {
          list {
            shape {
            }
          }
        }
      }
      attr {
        key: "dtype"
        value {
          type: DT_INT32
        }
      }
      attr {
        key: "value"
        value {
          tensor {
            dtype: DT_INT32
            tensor_shape {
            }
            int_val: 0
          }
        }
      }
    }
    node {
      name: "map/while/Enter"
      op: "Enter"
      input: "map/while/iteration_counter"
      attr {
        key: "T"
        value {
          type: DT_INT32
        }
      }
      attr {
        key: "_output_shapes"
        value {
          list {
            shape {
            }
          }
        }
      }
      attr {
        key: "frame_name"
        value {
          s: "map/while/while_context"
        }
      }
    }
    node {
      name: "map/while/Enter_1"
      op: "Enter"
      input: "map/Const"
      attr {
        key: "T"
        value {
          type: DT_INT32
        }
      }
      attr {
        key: "_output_shapes"
        value {
          list {
            shape {
            }
          }
        }
      }
      attr {
        key: "frame_name"
        value {
          s: "map/while/while_context"
        }
      }
    }
    node {
      name: "map/while/Enter_2"
      op: "Enter"
      input: "map/TensorArray_1:1"
      attr {
        key: "T"
        value {
          type: DT_FLOAT
        }
      }
      attr {
        key: "_output_shapes"
        value {
          list {
            shape {
            }
          }
        }
      }
      attr {
        key: "frame_name"
        value {
          s: "map/while/while_context"
        }
      }
    }
    node {
      name: "map/while/Merge"
      op: "Merge"
      input: "map/while/Enter"
      input: "map/while/NextIteration"
      attr {
        key: "N"
        value {
          i: 2
        }
      }
      attr {
        key: "T"
        value {
          type: DT_INT32
        }
      }
      attr {
        key: "_output_shapes"
        value {
          list {
            shape {
            }
            shape {
            }
          }
        }
      }
    }
    node {
      name: "map/while/Merge_1"
      op: "Merge"
      input: "map/while/Enter_1"
      input: "map/while/NextIteration_1"
      attr {
        key: "N"
        value {
          i: 2
        }
      }
      attr {
        key: "T"
        value {
          type: DT_INT32
        }
      }
      attr {
        key: "_output_shapes"
        value {
          list {
            shape {
            }
            shape {
            }
          }
        }
      }
    }
    node {
      name: "map/while/Merge_2"
      op: "Merge"
      input: "map/while/Enter_2"
      input: "map/while/NextIteration_2"
      attr {
        key: "N"
        value {
          i: 2
        }
      }
      attr {
        key: "T"
        value {
          type: DT_FLOAT
        }
      }
      attr {
        key: "_output_shapes"
        value {
          list {
            shape {
            }
            shape {
            }
          }
        }
      }
    }
    node {
      name: "map/while/Less"
      op: "Less"
      input: "map/while/Merge"
      input: "map/while/Less/Enter"
      attr {
        key: "T"
        value {
          type: DT_INT32
        }
      }
      attr {
        key: "_output_shapes"
        value {
          list {
            shape {
            }
          }
        }
      }
    }
    node {
      name: "map/while/Less/Enter"
      op: "Enter"
      input: "map/strided_slice"
      attr {
        key: "T"
        value {
          type: DT_INT32
        }
      }
      attr {
        key: "_output_shapes"
        value {
          list {
            shape {
            }
          }
        }
      }
      attr {
        key: "frame_name"
        value {
          s: "map/while/while_context"
        }
      }
      attr {
        key: "is_constant"
        value {
          b: true
        }
      }
    }
    node {
      name: "map/while/Less_1"
      op: "Less"
      input: "map/while/Merge_1"
      input: "map/while/Less/Enter"
      attr {
        key: "T"
        value {
          type: DT_INT32
        }
      }
      attr {
        key: "_output_shapes"
        value {
          list {
            shape {
            }
          }
        }
      }
    }
    node {
      name: "map/while/LogicalAnd"
      op: "LogicalAnd"
      input: "map/while/Less"
      input: "map/while/Less_1"
      attr {
        key: "_output_shapes"
        value {
          list {
            shape {
            }
          }
        }
      }
    }
    node {
      name: "map/while/LoopCond"
      op: "LoopCond"
      input: "map/while/LogicalAnd"
      attr {
        key: "_output_shapes"
        value {
          list {
            shape {
            }
          }
        }
      }
    }
    node {
      name: "map/while/Switch"
      op: "Switch"
      input: "map/while/Merge"
      input: "map/while/LoopCond"
      attr {
        key: "T"
        value {
          type: DT_INT32
        }
      }
      attr {
        key: "_class"
        value {
          list {
            s: "loc:@map/while/Merge"
          }
        }
      }
      attr {
        key: "_output_shapes"
        value {
          list {
            shape {
            }
            shape {
            }
          }
        }
      }
    }
    node {
      name: "map/while/Switch_1"
      op: "Switch"
      input: "map/while/Merge_1"
      input: "map/while/LoopCond"
      attr {
        key: "T"
        value {
          type: DT_INT32
        }
      }
      attr {
        key: "_class"
        value {
          list {
            s: "loc:@map/while/Merge_1"
          }
        }
      }
      attr {
        key: "_output_shapes"
        value {
          list {
            shape {
            }
            shape {
            }
          }
        }
      }
    }
    node {
      name: "map/while/Switch_2"
      op: "Switch"
      input: "map/while/Merge_2"
      input: "map/while/LoopCond"
      attr {
        key: "T"
        value {
          type: DT_FLOAT
        }
      }
      attr {
        key: "_class"
        value {
          list {
            s: "loc:@map/while/Merge_2"
          }
        }
      }
      attr {
        key: "_output_shapes"
        value {
          list {
            shape {
            }
            shape {
            }
          }
        }
      }
    }
    node {
      name: "map/while/Identity"
      op: "Identity"
      input: "map/while/Switch:1"
      attr {
        key: "T"
        value {
          type: DT_INT32
        }
      }
      attr {
        key: "_output_shapes"
        value {
          list {
            shape {
            }
          }
        }
      }
    }
    node {
      name: "map/while/Identity_1"
      op: "Identity"
      input: "map/while/Switch_1:1"
      attr {
        key: "T"
        value {
          type: DT_INT32
        }
      }
      attr {
        key: "_output_shapes"
        value {
          list {
            shape {
            }
          }
        }
      }
    }
    node {
      name: "map/while/Identity_2"
      op: "Identity"
      input: "map/while/Switch_2:1"
      attr {
        key: "T"
        value {
          type: DT_FLOAT
        }
      }
      attr {
        key: "_output_shapes"
        value {
          list {
            shape {
            }
          }
        }
      }
    }
    node {
      name: "map/while/add/y"
      op: "Const"
      input: "^map/while/Identity"
      attr {
        key: "_output_shapes"
        value {
          list {
            shape {
            }
          }
        }
      }
      attr {
        key: "dtype"
        value {
          type: DT_INT32
        }
      }
      attr {
        key: "value"
        value {
          tensor {
            dtype: DT_INT32
            tensor_shape {
            }
            int_val: 1
          }
        }
      }
    }
    node {
      name: "map/while/add"
      op: "Add"
      input: "map/while/Identity"
      input: "map/while/add/y"
      attr {
        key: "T"
        value {
          type: DT_INT32
        }
      }
      attr {
        key: "_output_shapes"
        value {
          list {
            shape {
            }
          }
        }
      }
    }
    node {
      name: "map/while/TensorArrayReadV3"
      op: "TensorArrayReadV3"
      input: "map/while/TensorArrayReadV3/Enter"
      input: "map/while/Identity_1"
      input: "map/while/TensorArrayReadV3/Enter_1"
      attr {
        key: "_output_shapes"
        value {
          list {
            shape {
              dim {
                size: 1024
              }
            }
          }
        }
      }
      attr {
        key: "dtype"
        value {
          type: DT_INT32
        }
      }
    }
    node {
      name: "map/while/TensorArrayReadV3/Enter"
      op: "Enter"
      input: "map/TensorArray"
      attr {
        key: "T"
        value {
          type: DT_RESOURCE
        }
      }
      attr {
        key: "_output_shapes"
        value {
          list {
            shape {
              dim {
                size: 2
              }
            }
          }
        }
      }
      attr {
        key: "frame_name"
        value {
          s: "map/while/while_context"
        }
      }
      attr {
        key: "is_constant"
        value {
          b: true
        }
      }
    }
    node {
      name: "map/while/TensorArrayReadV3/Enter_1"
      op: "Enter"
      input: "map/TensorArrayUnstack/TensorArrayScatter/TensorArrayScatterV3"
      attr {
        key: "T"
        value {
          type: DT_FLOAT
        }
      }
      attr {
        key: "_output_shapes"
        value {
          list {
            shape {
            }
          }
        }
      }
      attr {
        key: "frame_name"
        value {
          s: "map/while/while_context"
        }
      }
      attr {
        key: "is_constant"
        value {
          b: true
        }
      }
    }
    node {
      name: "map/while/NotEqual/y"
      op: "Const"
      input: "^map/while/Identity"
      attr {
        key: "_output_shapes"
        value {
          list {
            shape {
            }
          }
        }
      }
      attr {
        key: "dtype"
        value {
          type: DT_INT32
        }
      }
      attr {
        key: "value"
        value {
          tensor {
            dtype: DT_INT32
            tensor_shape {
            }
            int_val: 0
          }
        }
      }
    }
    node {
      name: "map/while/NotEqual"
      op: "NotEqual"
      input: "map/while/TensorArrayReadV3"
      input: "map/while/NotEqual/y"
      attr {
        key: "T"
        value {
          type: DT_INT32
        }
      }
      attr {
        key: "_output_shapes"
        value {
          list {
            shape {
              dim {
                size: 1024
              }
            }
          }
        }
      }
    }
    node {
      name: "map/while/Cast"
      op: "Cast"
      input: "map/while/NotEqual"
      attr {
        key: "DstT"
        value {
          type: DT_INT32
        }
      }
      attr {
        key: "SrcT"
        value {
          type: DT_BOOL
        }
      }
      attr {
        key: "_output_shapes"
        value {
          list {
            shape {
              dim {
                size: 1024
              }
            }
          }
        }
      }
    }
    node {
      name: "map/while/Sum/reduction_indices"
      op: "Const"
      input: "^map/while/Identity"
      attr {
        key: "_output_shapes"
        value {
          list {
            shape {
            }
          }
        }
      }
      attr {
        key: "dtype"
        value {
          type: DT_INT32
        }
      }
      attr {
        key: "value"
        value {
          tensor {
            dtype: DT_INT32
            tensor_shape {
            }
            int_val: -1
          }
        }
      }
    }
    node {
      name: "map/while/Sum"
      op: "Sum"
      input: "map/while/Cast"
      input: "map/while/Sum/reduction_indices"
      attr {
        key: "T"
        value {
          type: DT_INT32
        }
      }
      attr {
        key: "_output_shapes"
        value {
          list {
            shape {
            }
          }
        }
      }
    }
    node {
      name: "map/while/ones_like/Shape"
      op: "Const"
      input: "^map/while/Identity"
      attr {
        key: "_output_shapes"
        value {
          list {
            shape {
              dim {
              }
            }
          }
        }
      }
      attr {
        key: "dtype"
        value {
          type: DT_INT32
        }
      }
      attr {
        key: "value"
        value {
          tensor {
            dtype: DT_INT32
            tensor_shape {
              dim {
              }
            }
          }
        }
      }
    }
    node {
      name: "map/while/ones_like/Const"
      op: "Const"
      input: "^map/while/Identity"
      attr {
        key: "_output_shapes"
        value {
          list {
            shape {
            }
          }
        }
      }
      attr {
        key: "dtype"
        value {
          type: DT_INT32
        }
      }
      attr {
        key: "value"
        value {
          tensor {
            dtype: DT_INT32
            tensor_shape {
            }
            int_val: 1
          }
        }
      }
    }
    node {
      name: "map/while/ones_like"
      op: "Fill"
      input: "map/while/ones_like/Shape"
      input: "map/while/ones_like/Const"
      attr {
        key: "T"
        value {
          type: DT_INT32
        }
      }
      attr {
        key: "_output_shapes"
        value {
          list {
            shape {
            }
          }
        }
      }
    }
    node {
      name: "map/while/Equal/y"
      op: "Const"
      input: "^map/while/Identity"
      attr {
        key: "_output_shapes"
        value {
          list {
            shape {
            }
          }
        }
      }
      attr {
        key: "dtype"
        value {
          type: DT_INT32
        }
      }
      attr {
        key: "value"
        value {
          tensor {
            dtype: DT_INT32
            tensor_shape {
            }
            int_val: 0
          }
        }
      }
    }
    node {
      name: "map/while/Equal"
      op: "Equal"
      input: "map/while/Sum"
      input: "map/while/Equal/y"
      attr {
        key: "T"
        value {
          type: DT_INT32
        }
      }
      attr {
        key: "_output_shapes"
        value {
          list {
            shape {
            }
          }
        }
      }
    }
    node {
      name: "map/while/Select"
      op: "Select"
      input: "map/while/Equal"
      input: "map/while/ones_like"
      input: "map/while/Sum"
      attr {
        key: "T"
        value {
          type: DT_INT32
        }
      }
      attr {
        key: "_output_shapes"
        value {
          list {
            shape {
            }
          }
        }
      }
    }
    node {
      name: "map/while/TensorArrayWrite/TensorArrayWriteV3"
      op: "TensorArrayWriteV3"
      input: "map/while/TensorArrayWrite/TensorArrayWriteV3/Enter"
      input: "map/while/Identity_1"
      input: "map/while/Select"
      input: "map/while/Identity_2"
      attr {
        key: "T"
        value {
          type: DT_INT32
        }
      }
      attr {
        key: "_class"
        value {
          list {
            s: "loc:@map/while/Select"
          }
        }
      }
      attr {
        key: "_output_shapes"
        value {
          list {
            shape {
            }
          }
        }
      }
    }
    node {
      name: "map/while/TensorArrayWrite/TensorArrayWriteV3/Enter"
      op: "Enter"
      input: "map/TensorArray_1"
      attr {
        key: "T"
        value {
          type: DT_RESOURCE
        }
      }
      attr {
        key: "_class"
        value {
          list {
            s: "loc:@map/while/Select"
          }
        }
      }
      attr {
        key: "_output_shapes"
        value {
          list {
            shape {
              dim {
                size: 2
              }
            }
          }
        }
      }
      attr {
        key: "frame_name"
        value {
          s: "map/while/while_context"
        }
      }
      attr {
        key: "is_constant"
        value {
          b: true
        }
      }
    }
    node {
      name: "map/while/add_1/y"
      op: "Const"
      input: "^map/while/Identity"
      attr {
        key: "_output_shapes"
        value {
          list {
            shape {
            }
          }
        }
      }
      attr {
        key: "dtype"
        value {
          type: DT_INT32
        }
      }
      attr {
        key: "value"
        value {
          tensor {
            dtype: DT_INT32
            tensor_shape {
            }
            int_val: 1
          }
        }
      }
    }
    node {
      name: "map/while/add_1"
      op: "Add"
      input: "map/while/Identity_1"
      input: "map/while/add_1/y"
      attr {
        key: "T"
        value {
          type: DT_INT32
        }
      }
      attr {
        key: "_output_shapes"
        value {
          list {
            shape {
            }
          }
        }
      }
    }
    node {
      name: "map/while/NextIteration"
      op: "NextIteration"
      input: "map/while/add"
      attr {
        key: "T"
        value {
          type: DT_INT32
        }
      }
      attr {
        key: "_output_shapes"
        value {
          list {
            shape {
            }
          }
        }
      }
    }
    node {
      name: "map/while/NextIteration_1"
      op: "NextIteration"
      input: "map/while/add_1"
      attr {
        key: "T"
        value {
          type: DT_INT32
        }
      }
      attr {
        key: "_output_shapes"
        value {
          list {
            shape {
            }
          }
        }
      }
    }
    node {
      name: "map/while/NextIteration_2"
      op: "NextIteration"
      input: "map/while/TensorArrayWrite/TensorArrayWriteV3"
      attr {
        key: "T"
        value {
          type: DT_FLOAT
        }
      }
      attr {
        key: "_output_shapes"
        value {
          list {
            shape {
            }
          }
        }
      }
    }
    node {
      name: "map/while/Exit"
      op: "Exit"
      input: "map/while/Switch"
      attr {
        key: "T"
        value {
          type: DT_INT32
        }
      }
      attr {
        key: "_output_shapes"
        value {
          list {
            shape {
            }
          }
        }
      }
    }
    node {
      name: "map/while/Exit_1"
      op: "Exit"
      input: "map/while/Switch_1"
      attr {
        key: "T"
        value {
          type: DT_INT32
        }
      }
      attr {
        key: "_output_shapes"
        value {
          list {
            shape {
            }
          }
        }
      }
    }
    node {
      name: "map/while/Exit_2"
      op: "Exit"
      input: "map/while/Switch_2"
      attr {
        key: "T"
        value {
          type: DT_FLOAT
        }
      }
      attr {
        key: "_output_shapes"
        value {
          list {
            shape {
            }
          }
        }
      }
    }
    node {
      name: "map/TensorArrayStack/TensorArraySizeV3"
      op: "TensorArraySizeV3"
      input: "map/TensorArray_1"
      input: "map/while/Exit_2"
      attr {
        key: "_class"
        value {
          list {
            s: "loc:@map/TensorArray_1"
          }
        }
      }
      attr {
        key: "_output_shapes"
        value {
          list {
            shape {
            }
          }
        }
      }
    }
    node {
      name: "map/TensorArrayStack/range/start"
      op: "Const"
      attr {
        key: "_class"
        value {
          list {
            s: "loc:@map/TensorArray_1"
          }
        }
      }
      attr {
        key: "_output_shapes"
        value {
          list {
            shape {
            }
          }
        }
      }
      attr {
        key: "dtype"
        value {
          type: DT_INT32
        }
      }
      attr {
        key: "value"
        value {
          tensor {
            dtype: DT_INT32
            tensor_shape {
            }
            int_val: 0
          }
        }
      }
    }
    node {
      name: "map/TensorArrayStack/range/delta"
      op: "Const"
      attr {
        key: "_class"
        value {
          list {
            s: "loc:@map/TensorArray_1"
          }
        }
      }
      attr {
        key: "_output_shapes"
        value {
          list {
            shape {
            }
          }
        }
      }
      attr {
        key: "dtype"
        value {
          type: DT_INT32
        }
      }
      attr {
        key: "value"
        value {
          tensor {
            dtype: DT_INT32
            tensor_shape {
            }
            int_val: 1
          }
        }
      }
    }
    node {
      name: "map/TensorArrayStack/range"
      op: "Range"
      input: "map/TensorArrayStack/range/start"
      input: "map/TensorArrayStack/TensorArraySizeV3"
      input: "map/TensorArrayStack/range/delta"
      attr {
        key: "_class"
        value {
          list {
            s: "loc:@map/TensorArray_1"
          }
        }
      }
      attr {
        key: "_output_shapes"
        value {
          list {
            shape {
              dim {
                size: -1
              }
            }
          }
        }
      }
    }
    node {
      name: "map/TensorArrayStack/TensorArrayGatherV3"
      op: "TensorArrayGatherV3"
      input: "map/TensorArray_1"
      input: "map/TensorArrayStack/range"
      input: "map/while/Exit_2"
      attr {
        key: "_class"
        value {
          list {
            s: "loc:@map/TensorArray_1"
          }
        }
      }
      attr {
        key: "_output_shapes"
        value {
          list {
            shape {
              dim {
                size: -1
              }
            }
          }
        }
      }
      attr {
        key: "dtype"
        value {
          type: DT_INT32
        }
      }
      attr {
        key: "element_shape"
        value {
          shape {
          }
        }
      }
    }
    node {
      name: "hierarchical_attention_model/map/Shape"
      op: "Shape"
      input: "SentenceToIds"
      attr {
        key: "T"
        value {
          type: DT_INT32
        }
      }
      attr {
        key: "_output_shapes"
        value {
          list {
            shape {
              dim {
                size: 2
              }
            }
          }
        }
      }
    }
    node {
      name: "hierarchical_attention_model/map/strided_slice/stack"
      op: "Const"
      attr {
        key: "_output_shapes"
        value {
          list {
            shape {
              dim {
                size: 1
              }
            }
          }
        }
      }
      attr {
        key: "dtype"
        value {
          type: DT_INT32
        }
      }
      attr {
        key: "value"
        value {
          tensor {
            dtype: DT_INT32
            tensor_shape {
              dim {
                size: 1
              }
            }
            int_val: 0
          }
        }
      }
    }
    node {
      name: "hierarchical_attention_model/map/strided_slice/stack_1"
      op: "Const"
      attr {
        key: "_output_shapes"
        value {
          list {
            shape {
              dim {
                size: 1
              }
            }
          }
        }
      }
      attr {
        key: "dtype"
        value {
          type: DT_INT32
        }
      }
      attr {
        key: "value"
        value {
          tensor {
            dtype: DT_INT32
            tensor_shape {
              dim {
                size: 1
              }
            }
            int_val: 1
          }
        }
      }
    }
    node {
      name: "hierarchical_attention_model/map/strided_slice/stack_2"
      op: "Const"
      attr {
        key: "_output_shapes"
        value {
          list {
            shape {
              dim {
                size: 1
              }
            }
          }
        }
      }
      attr {
        key: "dtype"
        value {
          type: DT_INT32
        }
      }
      attr {
        key: "value"
        value {
          tensor {
            dtype: DT_INT32
            tensor_shape {
              dim {
                size: 1
              }
            }
            int_val: 1
          }
        }
      }
    }
    node {
      name: "hierarchical_attention_model/map/strided_slice"
      op: "StridedSlice"
      input: "hierarchical_attention_model/map/Shape"
      input: "hierarchical_attention_model/map/strided_slice/stack"
      input: "hierarchical_attention_model/map/strided_slice/stack_1"
      input: "hierarchical_attention_model/map/strided_slice/stack_2"
      attr {
        key: "Index"
        value {
          type: DT_INT32
        }
      }
      attr {
        key: "T"
        value {
          type: DT_INT32
        }
      }
      attr {
        key: "_output_shapes"
        value {
          list {
            shape {
            }
          }
        }
      }
      attr {
        key: "shrink_axis_mask"
        value {
          i: 1
        }
      }
    }
    node {
      name: "hierarchical_attention_model/map/TensorArray"
      op: "TensorArrayV3"
      input: "hierarchical_attention_model/map/strided_slice"
      attr {
        key: "_output_shapes"
        value {
          list {
            shape {
              dim {
                size: 2
              }
            }
            shape {
            }
          }
        }
      }
      attr {
        key: "dtype"
        value {
          type: DT_INT32
        }
      }
      attr {
        key: "identical_element_shapes"
        value {
          b: true
        }
      }
    }
    node {
      name: "hierarchical_attention_model/map/TensorArrayUnstack/Shape"
      op: "Shape"
      input: "SentenceToIds"
      attr {
        key: "T"
        value {
          type: DT_INT32
        }
      }
      attr {
        key: "_output_shapes"
        value {
          list {
            shape {
              dim {
                size: 2
              }
            }
          }
        }
      }
    }
    node {
      name: "hierarchical_attention_model/map/TensorArrayUnstack/strided_slice/stack"
      op: "Const"
      attr {
        key: "_output_shapes"
        value {
          list {
            shape {
              dim {
                size: 1
              }
            }
          }
        }
      }
      attr {
        key: "dtype"
        value {
          type: DT_INT32
        }
      }
      attr {
        key: "value"
        value {
          tensor {
            dtype: DT_INT32
            tensor_shape {
              dim {
                size: 1
              }
            }
            int_val: 0
          }
        }
      }
    }
    node {
      name: "hierarchical_attention_model/map/TensorArrayUnstack/strided_slice/stack_1"
      op: "Const"
      attr {
        key: "_output_shapes"
        value {
          list {
            shape {
              dim {
                size: 1
              }
            }
          }
        }
      }
      attr {
        key: "dtype"
        value {
          type: DT_INT32
        }
      }
      attr {
        key: "value"
        value {
          tensor {
            dtype: DT_INT32
            tensor_shape {
              dim {
                size: 1
              }
            }
            int_val: 1
          }
        }
      }
    }
    node {
      name: "hierarchical_attention_model/map/TensorArrayUnstack/strided_slice/stack_2"
      op: "Const"
      attr {
        key: "_output_shapes"
        value {
          list {
            shape {
              dim {
                size: 1
              }
            }
          }
        }
      }
      attr {
        key: "dtype"
        value {
          type: DT_INT32
        }
      }
      attr {
        key: "value"
        value {
          tensor {
            dtype: DT_INT32
            tensor_shape {
              dim {
                size: 1
              }
            }
            int_val: 1
          }
        }
      }
    }
    node {
      name: "hierarchical_attention_model/map/TensorArrayUnstack/strided_slice"
      op: "StridedSlice"
      input: "hierarchical_attention_model/map/TensorArrayUnstack/Shape"
      input: "hierarchical_attention_model/map/TensorArrayUnstack/strided_slice/stack"
      input: "hierarchical_attention_model/map/TensorArrayUnstack/strided_slice/stack_1"
      input: "hierarchical_attention_model/map/TensorArrayUnstack/strided_slice/stack_2"
      attr {
        key: "Index"
        value {
          type: DT_INT32
        }
      }
      attr {
        key: "T"
        value {
          type: DT_INT32
        }
      }
      attr {
        key: "_output_shapes"
        value {
          list {
            shape {
            }
          }
        }
      }
      attr {
        key: "shrink_axis_mask"
        value {
          i: 1
        }
      }
    }
    node {
      name: "hierarchical_attention_model/map/TensorArrayUnstack/range/start"
      op: "Const"
      attr {
        key: "_output_shapes"
        value {
          list {
            shape {
            }
          }
        }
      }
      attr {
        key: "dtype"
        value {
          type: DT_INT32
        }
      }
      attr {
        key: "value"
        value {
          tensor {
            dtype: DT_INT32
            tensor_shape {
            }
            int_val: 0
          }
        }
      }
    }
    node {
      name: "hierarchical_attention_model/map/TensorArrayUnstack/range/delta"
      op: "Const"
      attr {
        key: "_output_shapes"
        value {
          list {
            shape {
            }
          }
        }
      }
      attr {
        key: "dtype"
        value {
          type: DT_INT32
        }
      }
      attr {
        key: "value"
        value {
          tensor {
            dtype: DT_INT32
            tensor_shape {
            }
            int_val: 1
          }
        }
      }
    }
    node {
      name: "hierarchical_attention_model/map/TensorArrayUnstack/range"
      op: "Range"
      input: "hierarchical_attention_model/map/TensorArrayUnstack/range/start"
      input: "hierarchical_attention_model/map/TensorArrayUnstack/strided_slice"
      input: "hierarchical_attention_model/map/TensorArrayUnstack/range/delta"
      attr {
        key: "_output_shapes"
        value {
          list {
            shape {
              dim {
                size: -1
              }
            }
          }
        }
      }
    }
    node {
      name: "hierarchical_attention_model/map/TensorArrayUnstack/TensorArrayScatter/TensorArrayScatterV3"
      op: "TensorArrayScatterV3"
      input: "hierarchical_attention_model/map/TensorArray"
      input: "hierarchical_attention_model/map/TensorArrayUnstack/range"
      input: "SentenceToIds"
      input: "hierarchical_attention_model/map/TensorArray:1"
      attr {
        key: "T"
        value {
          type: DT_INT32
        }
      }
      attr {
        key: "_class"
        value {
          list {
            s: "loc:@SentenceToIds"
          }
        }
      }
      attr {
        key: "_output_shapes"
        value {
          list {
            shape {
            }
          }
        }
      }
    }
    node {
      name: "hierarchical_attention_model/map/Const"
      op: "Const"
      attr {
        key: "_output_shapes"
        value {
          list {
            shape {
            }
          }
        }
      }
      attr {
        key: "dtype"
        value {
          type: DT_INT32
        }
      }
      attr {
        key: "value"
        value {
          tensor {
            dtype: DT_INT32
            tensor_shape {
            }
            int_val: 0
          }
        }
      }
    }
    node {
      name: "hierarchical_attention_model/map/TensorArray_1"
      op: "TensorArrayV3"
      input: "hierarchical_attention_model/map/strided_slice"
      attr {
        key: "_output_shapes"
        value {
          list {
            shape {
              dim {
                size: 2
              }
            }
            shape {
            }
          }
        }
      }
      attr {
        key: "dtype"
        value {
          type: DT_INT32
        }
      }
      attr {
        key: "identical_element_shapes"
        value {
          b: true
        }
      }
    }
    node {
      name: "hierarchical_attention_model/map/while/iteration_counter"
      op: "Const"
      attr {
        key: "_output_shapes"
        value {
          list {
            shape {
            }
          }
        }
      }
      attr {
        key: "dtype"
        value {
          type: DT_INT32
        }
      }
      attr {
        key: "value"
        value {
          tensor {
            dtype: DT_INT32
            tensor_shape {
            }
            int_val: 0
          }
        }
      }
    }
    node {
      name: "hierarchical_attention_model/map/while/Enter"
      op: "Enter"
      input: "hierarchical_attention_model/map/while/iteration_counter"
      attr {
        key: "T"
        value {
          type: DT_INT32
        }
      }
      attr {
        key: "_output_shapes"
        value {
          list {
            shape {
            }
          }
        }
      }
      attr {
        key: "frame_name"
        value {
          s: "hierarchical_attention_model/map/while/while_context"
        }
      }
    }
    node {
      name: "hierarchical_attention_model/map/while/Enter_1"
      op: "Enter"
      input: "hierarchical_attention_model/map/Const"
      attr {
        key: "T"
        value {
          type: DT_INT32
        }
      }
      attr {
        key: "_output_shapes"
        value {
          list {
            shape {
            }
          }
        }
      }
      attr {
        key: "frame_name"
        value {
          s: "hierarchical_attention_model/map/while/while_context"
        }
      }
    }
    node {
      name: "hierarchical_attention_model/map/while/Enter_2"
      op: "Enter"
      input: "hierarchical_attention_model/map/TensorArray_1:1"
      attr {
        key: "T"
        value {
          type: DT_FLOAT
        }
      }
      attr {
        key: "_output_shapes"
        value {
          list {
            shape {
            }
          }
        }
      }
      attr {
        key: "frame_name"
        value {
          s: "hierarchical_attention_model/map/while/while_context"
        }
      }
    }
    node {
      name: "hierarchical_attention_model/map/while/Merge"
      op: "Merge"
      input: "hierarchical_attention_model/map/while/Enter"
      input: "hierarchical_attention_model/map/while/NextIteration"
      attr {
        key: "N"
        value {
          i: 2
        }
      }
      attr {
        key: "T"
        value {
          type: DT_INT32
        }
      }
      attr {
        key: "_output_shapes"
        value {
          list {
            shape {
            }
            shape {
            }
          }
        }
      }
    }
    node {
      name: "hierarchical_attention_model/map/while/Merge_1"
      op: "Merge"
      input: "hierarchical_attention_model/map/while/Enter_1"
      input: "hierarchical_attention_model/map/while/NextIteration_1"
      attr {
        key: "N"
        value {
          i: 2
        }
      }
      attr {
        key: "T"
        value {
          type: DT_INT32
        }
      }
      attr {
        key: "_output_shapes"
        value {
          list {
            shape {
            }
            shape {
            }
          }
        }
      }
    }
    node {
      name: "hierarchical_attention_model/map/while/Merge_2"
      op: "Merge"
      input: "hierarchical_attention_model/map/while/Enter_2"
      input: "hierarchical_attention_model/map/while/NextIteration_2"
      attr {
        key: "N"
        value {
          i: 2
        }
      }
      attr {
        key: "T"
        value {
          type: DT_FLOAT
        }
      }
      attr {
        key: "_output_shapes"
        value {
          list {
            shape {
            }
            shape {
            }
          }
        }
      }
    }
    node {
      name: "hierarchical_attention_model/map/while/Less"
      op: "Less"
      input: "hierarchical_attention_model/map/while/Merge"
      input: "hierarchical_attention_model/map/while/Less/Enter"
      attr {
        key: "T"
        value {
          type: DT_INT32
        }
      }
      attr {
        key: "_output_shapes"
        value {
          list {
            shape {
            }
          }
        }
      }
    }
    node {
      name: "hierarchical_attention_model/map/while/Less/Enter"
      op: "Enter"
      input: "hierarchical_attention_model/map/strided_slice"
      attr {
        key: "T"
        value {
          type: DT_INT32
        }
      }
      attr {
        key: "_output_shapes"
        value {
          list {
            shape {
            }
          }
        }
      }
      attr {
        key: "frame_name"
        value {
          s: "hierarchical_attention_model/map/while/while_context"
        }
      }
      attr {
        key: "is_constant"
        value {
          b: true
        }
      }
    }
    node {
      name: "hierarchical_attention_model/map/while/Less_1"
      op: "Less"
      input: "hierarchical_attention_model/map/while/Merge_1"
      input: "hierarchical_attention_model/map/while/Less/Enter"
      attr {
        key: "T"
        value {
          type: DT_INT32
        }
      }
      attr {
        key: "_output_shapes"
        value {
          list {
            shape {
            }
          }
        }
      }
    }
    node {
      name: "hierarchical_attention_model/map/while/LogicalAnd"
      op: "LogicalAnd"
      input: "hierarchical_attention_model/map/while/Less"
      input: "hierarchical_attention_model/map/while/Less_1"
      attr {
        key: "_output_shapes"
        value {
          list {
            shape {
            }
          }
        }
      }
    }
    node {
      name: "hierarchical_attention_model/map/while/LoopCond"
      op: "LoopCond"
      input: "hierarchical_attention_model/map/while/LogicalAnd"
      attr {
        key: "_output_shapes"
        value {
          list {
            shape {
            }
          }
        }
      }
    }
    node {
      name: "hierarchical_attention_model/map/while/Switch"
      op: "Switch"
      input: "hierarchical_attention_model/map/while/Merge"
      input: "hierarchical_attention_model/map/while/LoopCond"
      attr {
        key: "T"
        value {
          type: DT_INT32
        }
      }
      attr {
        key: "_class"
        value {
          list {
            s: "loc:@hierarchical_attention_model/map/while/Merge"
          }
        }
      }
      attr {
        key: "_output_shapes"
        value {
          list {
            shape {
            }
            shape {
            }
          }
        }
      }
    }
    node {
      name: "hierarchical_attention_model/map/while/Switch_1"
      op: "Switch"
      input: "hierarchical_attention_model/map/while/Merge_1"
      input: "hierarchical_attention_model/map/while/LoopCond"
      attr {
        key: "T"
        value {
          type: DT_INT32
        }
      }
      attr {
        key: "_class"
        value {
          list {
            s: "loc:@hierarchical_attention_model/map/while/Merge_1"
          }
        }
      }
      attr {
        key: "_output_shapes"
        value {
          list {
            shape {
            }
            shape {
            }
          }
        }
      }
    }
    node {
      name: "hierarchical_attention_model/map/while/Switch_2"
      op: "Switch"
      input: "hierarchical_attention_model/map/while/Merge_2"
      input: "hierarchical_attention_model/map/while/LoopCond"
      attr {
        key: "T"
        value {
          type: DT_FLOAT
        }
      }
      attr {
        key: "_class"
        value {
          list {
            s: "loc:@hierarchical_attention_model/map/while/Merge_2"
          }
        }
      }
      attr {
        key: "_output_shapes"
        value {
          list {
            shape {
            }
            shape {
            }
          }
        }
      }
    }
    node {
      name: "hierarchical_attention_model/map/while/Identity"
      op: "Identity"
      input: "hierarchical_attention_model/map/while/Switch:1"
      attr {
        key: "T"
        value {
          type: DT_INT32
        }
      }
      attr {
        key: "_output_shapes"
        value {
          list {
            shape {
            }
          }
        }
      }
    }
    node {
      name: "hierarchical_attention_model/map/while/Identity_1"
      op: "Identity"
      input: "hierarchical_attention_model/map/while/Switch_1:1"
      attr {
        key: "T"
        value {
          type: DT_INT32
        }
      }
      attr {
        key: "_output_shapes"
        value {
          list {
            shape {
            }
          }
        }
      }
    }
    node {
      name: "hierarchical_attention_model/map/while/Identity_2"
      op: "Identity"
      input: "hierarchical_attention_model/map/while/Switch_2:1"
      attr {
        key: "T"
        value {
          type: DT_FLOAT
        }
      }
      attr {
        key: "_output_shapes"
        value {
          list {
            shape {
            }
          }
        }
      }
    }
    node {
      name: "hierarchical_attention_model/map/while/add/y"
      op: "Const"
      input: "^hierarchical_attention_model/map/while/Identity"
      attr {
        key: "_output_shapes"
        value {
          list {
            shape {
            }
          }
        }
      }
      attr {
        key: "dtype"
        value {
          type: DT_INT32
        }
      }
      attr {
        key: "value"
        value {
          tensor {
            dtype: DT_INT32
            tensor_shape {
            }
            int_val: 1
          }
        }
      }
    }
    node {
      name: "hierarchical_attention_model/map/while/add"
      op: "Add"
      input: "hierarchical_attention_model/map/while/Identity"
      input: "hierarchical_attention_model/map/while/add/y"
      attr {
        key: "T"
        value {
          type: DT_INT32
        }
      }
      attr {
        key: "_output_shapes"
        value {
          list {
            shape {
            }
          }
        }
      }
    }
    node {
      name: "hierarchical_attention_model/map/while/TensorArrayReadV3"
      op: "TensorArrayReadV3"
      input: "hierarchical_attention_model/map/while/TensorArrayReadV3/Enter"
      input: "hierarchical_attention_model/map/while/Identity_1"
      input: "hierarchical_attention_model/map/while/TensorArrayReadV3/Enter_1"
      attr {
        key: "_output_shapes"
        value {
          list {
            shape {
              dim {
                size: 1024
              }
            }
          }
        }
      }
      attr {
        key: "dtype"
        value {
          type: DT_INT32
        }
      }
    }
    node {
      name: "hierarchical_attention_model/map/while/TensorArrayReadV3/Enter"
      op: "Enter"
      input: "hierarchical_attention_model/map/TensorArray"
      attr {
        key: "T"
        value {
          type: DT_RESOURCE
        }
      }
      attr {
        key: "_output_shapes"
        value {
          list {
            shape {
              dim {
                size: 2
              }
            }
          }
        }
      }
      attr {
        key: "frame_name"
        value {
          s: "hierarchical_attention_model/map/while/while_context"
        }
      }
      attr {
        key: "is_constant"
        value {
          b: true
        }
      }
    }
    node {
      name: "hierarchical_attention_model/map/while/TensorArrayReadV3/Enter_1"
      op: "Enter"
      input: "hierarchical_attention_model/map/TensorArrayUnstack/TensorArrayScatter/TensorArrayScatterV3"
      attr {
        key: "T"
        value {
          type: DT_FLOAT
        }
      }
      attr {
        key: "_output_shapes"
        value {
          list {
            shape {
            }
          }
        }
      }
      attr {
        key: "frame_name"
        value {
          s: "hierarchical_attention_model/map/while/while_context"
        }
      }
      attr {
        key: "is_constant"
        value {
          b: true
        }
      }
    }
    node {
      name: "hierarchical_attention_model/map/while/Equal/y"
      op: "Const"
      input: "^hierarchical_attention_model/map/while/Identity"
      attr {
        key: "_output_shapes"
        value {
          list {
            shape {
            }
          }
        }
      }
      attr {
        key: "dtype"
        value {
          type: DT_INT32
        }
      }
      attr {
        key: "value"
        value {
          tensor {
            dtype: DT_INT32
            tensor_shape {
            }
            int_val: 6
          }
        }
      }
    }
    node {
      name: "hierarchical_attention_model/map/while/Equal"
      op: "Equal"
      input: "hierarchical_attention_model/map/while/TensorArrayReadV3"
      input: "hierarchical_attention_model/map/while/Equal/y"
      attr {
        key: "T"
        value {
          type: DT_INT32
        }
      }
      attr {
        key: "_output_shapes"
        value {
          list {
            shape {
              dim {
                size: 1024
              }
            }
          }
        }
      }
    }
    node {
      name: "hierarchical_attention_model/map/while/Where"
      op: "Where"
      input: "hierarchical_attention_model/map/while/Equal"
      attr {
        key: "_output_shapes"
        value {
          list {
            shape {
              dim {
                size: -1
              }
              dim {
                size: 1
              }
            }
          }
        }
      }
    }
    node {
      name: "hierarchical_attention_model/map/while/Squeeze"
      op: "Squeeze"
      input: "hierarchical_attention_model/map/while/Where"
      attr {
        key: "T"
        value {
          type: DT_INT64
        }
      }
      attr {
        key: "_output_shapes"
        value {
          list {
            shape {
              dim {
                size: -1
              }
            }
          }
        }
      }
      attr {
        key: "squeeze_dims"
        value {
          list {
            i: 1
          }
        }
      }
    }
    node {
      name: "hierarchical_attention_model/map/while/strided_slice/stack"
      op: "Const"
      input: "^hierarchical_attention_model/map/while/Identity"
      attr {
        key: "_output_shapes"
        value {
          list {
            shape {
              dim {
                size: 1
              }
            }
          }
        }
      }
      attr {
        key: "dtype"
        value {
          type: DT_INT32
        }
      }
      attr {
        key: "value"
        value {
          tensor {
            dtype: DT_INT32
            tensor_shape {
              dim {
                size: 1
              }
            }
            int_val: 0
          }
        }
      }
    }
    node {
      name: "hierarchical_attention_model/map/while/strided_slice/stack_1"
      op: "Const"
      input: "^hierarchical_attention_model/map/while/Identity"
      attr {
        key: "_output_shapes"
        value {
          list {
            shape {
              dim {
                size: 1
              }
            }
          }
        }
      }
      attr {
        key: "dtype"
        value {
          type: DT_INT32
        }
      }
      attr {
        key: "value"
        value {
          tensor {
            dtype: DT_INT32
            tensor_shape {
              dim {
                size: 1
              }
            }
            int_val: 1
          }
        }
      }
    }
    node {
      name: "hierarchical_attention_model/map/while/strided_slice/stack_2"
      op: "Const"
      input: "^hierarchical_attention_model/map/while/Identity"
      attr {
        key: "_output_shapes"
        value {
          list {
            shape {
              dim {
                size: 1
              }
            }
          }
        }
      }
      attr {
        key: "dtype"
        value {
          type: DT_INT32
        }
      }
      attr {
        key: "value"
        value {
          tensor {
            dtype: DT_INT32
            tensor_shape {
              dim {
                size: 1
              }
            }
            int_val: 1
          }
        }
      }
    }
    node {
      name: "hierarchical_attention_model/map/while/strided_slice"
      op: "StridedSlice"
      input: "hierarchical_attention_model/map/while/Squeeze"
      input: "hierarchical_attention_model/map/while/strided_slice/stack"
      input: "hierarchical_attention_model/map/while/strided_slice/stack_1"
      input: "hierarchical_attention_model/map/while/strided_slice/stack_2"
      attr {
        key: "Index"
        value {
          type: DT_INT32
        }
      }
      attr {
        key: "T"
        value {
          type: DT_INT64
        }
      }
      attr {
        key: "_output_shapes"
        value {
          list {
            shape {
              dim {
                size: -1
              }
            }
          }
        }
      }
      attr {
        key: "begin_mask"
        value {
          i: 1
        }
      }
    }
    node {
      name: "hierarchical_attention_model/map/while/add_1/y"
      op: "Const"
      input: "^hierarchical_attention_model/map/while/Identity"
      attr {
        key: "_output_shapes"
        value {
          list {
            shape {
            }
          }
        }
      }
      attr {
        key: "dtype"
        value {
          type: DT_INT64
        }
      }
      attr {
        key: "value"
        value {
          tensor {
            dtype: DT_INT64
            tensor_shape {
            }
            int64_val: 1
          }
        }
      }
    }
    node {
      name: "hierarchical_attention_model/map/while/add_1"
      op: "Add"
      input: "hierarchical_attention_model/map/while/strided_slice"
      input: "hierarchical_attention_model/map/while/add_1/y"
      attr {
        key: "T"
        value {
          type: DT_INT64
        }
      }
      attr {
        key: "_output_shapes"
        value {
          list {
            shape {
              dim {
                size: -1
              }
            }
          }
        }
      }
    }
    node {
      name: "hierarchical_attention_model/map/while/strided_slice_1/stack"
      op: "Const"
      input: "^hierarchical_attention_model/map/while/Identity"
      attr {
        key: "_output_shapes"
        value {
          list {
            shape {
              dim {
                size: 1
              }
            }
          }
        }
      }
      attr {
        key: "dtype"
        value {
          type: DT_INT32
        }
      }
      attr {
        key: "value"
        value {
          tensor {
            dtype: DT_INT32
            tensor_shape {
              dim {
                size: 1
              }
            }
            int_val: 1
          }
        }
      }
    }
    node {
      name: "hierarchical_attention_model/map/while/strided_slice_1/stack_1"
      op: "Const"
      input: "^hierarchical_attention_model/map/while/Identity"
      attr {
        key: "_output_shapes"
        value {
          list {
            shape {
              dim {
                size: 1
              }
            }
          }
        }
      }
      attr {
        key: "dtype"
        value {
          type: DT_INT32
        }
      }
      attr {
        key: "value"
        value {
          tensor {
            dtype: DT_INT32
            tensor_shape {
              dim {
                size: 1
              }
            }
            int_val: 0
          }
        }
      }
    }
    node {
      name: "hierarchical_attention_model/map/while/strided_slice_1/stack_2"
      op: "Const"
      input: "^hierarchical_attention_model/map/while/Identity"
      attr {
        key: "_output_shapes"
        value {
          list {
            shape {
              dim {
                size: 1
              }
            }
          }
        }
      }
      attr {
        key: "dtype"
        value {
          type: DT_INT32
        }
      }
      attr {
        key: "value"
        value {
          tensor {
            dtype: DT_INT32
            tensor_shape {
              dim {
                size: 1
              }
            }
            int_val: 1
          }
        }
      }
    }
    node {
      name: "hierarchical_attention_model/map/while/strided_slice_1"
      op: "StridedSlice"
      input: "hierarchical_attention_model/map/while/Squeeze"
      input: "hierarchical_attention_model/map/while/strided_slice_1/stack"
      input: "hierarchical_attention_model/map/while/strided_slice_1/stack_1"
      input: "hierarchical_attention_model/map/while/strided_slice_1/stack_2"
      attr {
        key: "Index"
        value {
          type: DT_INT32
        }
      }
      attr {
        key: "T"
        value {
          type: DT_INT64
        }
      }
      attr {
        key: "_output_shapes"
        value {
          list {
            shape {
              dim {
                size: -1
              }
            }
          }
        }
      }
      attr {
        key: "end_mask"
        value {
          i: 1
        }
      }
    }
    node {
      name: "hierarchical_attention_model/map/while/strided_slice_2/stack"
      op: "Const"
      input: "^hierarchical_attention_model/map/while/Identity"
      attr {
        key: "_output_shapes"
        value {
          list {
            shape {
              dim {
                size: 1
              }
            }
          }
        }
      }
      attr {
        key: "dtype"
        value {
          type: DT_INT32
        }
      }
      attr {
        key: "value"
        value {
          tensor {
            dtype: DT_INT32
            tensor_shape {
              dim {
                size: 1
              }
            }
            int_val: 0
          }
        }
      }
    }
    node {
      name: "hierarchical_attention_model/map/while/strided_slice_2/stack_1"
      op: "Const"
      input: "^hierarchical_attention_model/map/while/Identity"
      attr {
        key: "_output_shapes"
        value {
          list {
            shape {
              dim {
                size: 1
              }
            }
          }
        }
      }
      attr {
        key: "dtype"
        value {
          type: DT_INT32
        }
      }
      attr {
        key: "value"
        value {
          tensor {
            dtype: DT_INT32
            tensor_shape {
              dim {
                size: 1
              }
            }
            int_val: -1
          }
        }
      }
    }
    node {
      name: "hierarchical_attention_model/map/while/strided_slice_2/stack_2"
      op: "Const"
      input: "^hierarchical_attention_model/map/while/Identity"
      attr {
        key: "_output_shapes"
        value {
          list {
            shape {
              dim {
                size: 1
              }
            }
          }
        }
      }
      attr {
        key: "dtype"
        value {
          type: DT_INT32
        }
      }
      attr {
        key: "value"
        value {
          tensor {
            dtype: DT_INT32
            tensor_shape {
              dim {
                size: 1
              }
            }
            int_val: 1
          }
        }
      }
    }
    node {
      name: "hierarchical_attention_model/map/while/strided_slice_2"
      op: "StridedSlice"
      input: "hierarchical_attention_model/map/while/Squeeze"
      input: "hierarchical_attention_model/map/while/strided_slice_2/stack"
      input: "hierarchical_attention_model/map/while/strided_slice_2/stack_1"
      input: "hierarchical_attention_model/map/while/strided_slice_2/stack_2"
      attr {
        key: "Index"
        value {
          type: DT_INT32
        }
      }
      attr {
        key: "T"
        value {
          type: DT_INT64
        }
      }
      attr {
        key: "_output_shapes"
        value {
          list {
            shape {
              dim {
                size: -1
              }
            }
          }
        }
      }
      attr {
        key: "begin_mask"
        value {
          i: 1
        }
      }
    }
    node {
      name: "hierarchical_attention_model/map/while/sub"
      op: "Sub"
      input: "hierarchical_attention_model/map/while/strided_slice_1"
      input: "hierarchical_attention_model/map/while/strided_slice_2"
      attr {
        key: "T"
        value {
          type: DT_INT64
        }
      }
      attr {
        key: "_output_shapes"
        value {
          list {
            shape {
              dim {
                size: -1
              }
            }
          }
        }
      }
    }
    node {
      name: "hierarchical_attention_model/map/while/concat/axis"
      op: "Const"
      input: "^hierarchical_attention_model/map/while/Identity"
      attr {
        key: "_output_shapes"
        value {
          list {
            shape {
            }
          }
        }
      }
      attr {
        key: "dtype"
        value {
          type: DT_INT32
        }
      }
      attr {
        key: "value"
        value {
          tensor {
            dtype: DT_INT32
            tensor_shape {
            }
            int_val: 0
          }
        }
      }
    }
    node {
      name: "hierarchical_attention_model/map/while/concat"
      op: "ConcatV2"
      input: "hierarchical_attention_model/map/while/add_1"
      input: "hierarchical_attention_model/map/while/sub"
      input: "hierarchical_attention_model/map/while/concat/axis"
      attr {
        key: "N"
        value {
          i: 2
        }
      }
      attr {
        key: "T"
        value {
          type: DT_INT64
        }
      }
      attr {
        key: "_output_shapes"
        value {
          list {
            shape {
              dim {
                size: -1
              }
            }
          }
        }
      }
    }
    node {
      name: "hierarchical_attention_model/map/while/Shape"
      op: "Shape"
      input: "hierarchical_attention_model/map/while/concat"
      attr {
        key: "T"
        value {
          type: DT_INT64
        }
      }
      attr {
        key: "_output_shapes"
        value {
          list {
            shape {
              dim {
                size: 1
              }
            }
          }
        }
      }
    }
    node {
      name: "hierarchical_attention_model/map/while/strided_slice_3/stack"
      op: "Const"
      input: "^hierarchical_attention_model/map/while/Identity"
      attr {
        key: "_output_shapes"
        value {
          list {
            shape {
              dim {
                size: 1
              }
            }
          }
        }
      }
      attr {
        key: "dtype"
        value {
          type: DT_INT32
        }
      }
      attr {
        key: "value"
        value {
          tensor {
            dtype: DT_INT32
            tensor_shape {
              dim {
                size: 1
              }
            }
            int_val: 0
          }
        }
      }
    }
    node {
      name: "hierarchical_attention_model/map/while/strided_slice_3/stack_1"
      op: "Const"
      input: "^hierarchical_attention_model/map/while/Identity"
      attr {
        key: "_output_shapes"
        value {
          list {
            shape {
              dim {
                size: 1
              }
            }
          }
        }
      }
      attr {
        key: "dtype"
        value {
          type: DT_INT32
        }
      }
      attr {
        key: "value"
        value {
          tensor {
            dtype: DT_INT32
            tensor_shape {
              dim {
                size: 1
              }
            }
            int_val: 1
          }
        }
      }
    }
    node {
      name: "hierarchical_attention_model/map/while/strided_slice_3/stack_2"
      op: "Const"
      input: "^hierarchical_attention_model/map/while/Identity"
      attr {
        key: "_output_shapes"
        value {
          list {
            shape {
              dim {
                size: 1
              }
            }
          }
        }
      }
      attr {
        key: "dtype"
        value {
          type: DT_INT32
        }
      }
      attr {
        key: "value"
        value {
          tensor {
            dtype: DT_INT32
            tensor_shape {
              dim {
                size: 1
              }
            }
            int_val: 1
          }
        }
      }
    }
    node {
      name: "hierarchical_attention_model/map/while/strided_slice_3"
      op: "StridedSlice"
      input: "hierarchical_attention_model/map/while/Shape"
      input: "hierarchical_attention_model/map/while/strided_slice_3/stack"
      input: "hierarchical_attention_model/map/while/strided_slice_3/stack_1"
      input: "hierarchical_attention_model/map/while/strided_slice_3/stack_2"
      attr {
        key: "Index"
        value {
          type: DT_INT32
        }
      }
      attr {
        key: "T"
        value {
          type: DT_INT32
        }
      }
      attr {
        key: "_output_shapes"
        value {
          list {
            shape {
            }
          }
        }
      }
      attr {
        key: "shrink_axis_mask"
        value {
          i: 1
        }
      }
    }
    node {
      name: "hierarchical_attention_model/map/while/Less_2/y"
      op: "Const"
      input: "^hierarchical_attention_model/map/while/Identity"
      attr {
        key: "_output_shapes"
        value {
          list {
            shape {
            }
          }
        }
      }
      attr {
        key: "dtype"
        value {
          type: DT_INT32
        }
      }
      attr {
        key: "value"
        value {
          tensor {
            dtype: DT_INT32
            tensor_shape {
            }
            int_val: 32
          }
        }
      }
    }
    node {
      name: "hierarchical_attention_model/map/while/Less_2"
      op: "Less"
      input: "hierarchical_attention_model/map/while/strided_slice_3"
      input: "hierarchical_attention_model/map/while/Less_2/y"
      attr {
        key: "T"
        value {
          type: DT_INT32
        }
      }
      attr {
        key: "_output_shapes"
        value {
          list {
            shape {
            }
          }
        }
      }
    }
    node {
      name: "hierarchical_attention_model/map/while/cond/Switch"
      op: "Switch"
      input: "hierarchical_attention_model/map/while/Less_2"
      input: "hierarchical_attention_model/map/while/Less_2"
      attr {
        key: "T"
        value {
          type: DT_BOOL
        }
      }
      attr {
        key: "_output_shapes"
        value {
          list {
            shape {
            }
            shape {
            }
          }
        }
      }
    }
    node {
      name: "hierarchical_attention_model/map/while/cond/switch_t"
      op: "Identity"
      input: "hierarchical_attention_model/map/while/cond/Switch:1"
      attr {
        key: "T"
        value {
          type: DT_BOOL
        }
      }
      attr {
        key: "_output_shapes"
        value {
          list {
            shape {
            }
          }
        }
      }
    }
    node {
      name: "hierarchical_attention_model/map/while/cond/switch_f"
      op: "Identity"
      input: "hierarchical_attention_model/map/while/cond/Switch"
      attr {
        key: "T"
        value {
          type: DT_BOOL
        }
      }
      attr {
        key: "_output_shapes"
        value {
          list {
            shape {
            }
          }
        }
      }
    }
    node {
      name: "hierarchical_attention_model/map/while/cond/pred_id"
      op: "Identity"
      input: "hierarchical_attention_model/map/while/Less_2"
      attr {
        key: "T"
        value {
          type: DT_BOOL
        }
      }
      attr {
        key: "_output_shapes"
        value {
          list {
            shape {
            }
          }
        }
      }
    }
    node {
      name: "hierarchical_attention_model/map/while/cond/Const"
      op: "Const"
      input: "^hierarchical_attention_model/map/while/cond/switch_t"
      attr {
        key: "_output_shapes"
        value {
          list {
            shape {
              dim {
                size: 2
              }
            }
          }
        }
      }
      attr {
        key: "dtype"
        value {
          type: DT_INT32
        }
      }
      attr {
        key: "value"
        value {
          tensor {
            dtype: DT_INT32
            tensor_shape {
              dim {
                size: 2
              }
            }
            tensor_content: "\001\000\000\000\002\000\000\000"
          }
        }
      }
    }
    node {
      name: "hierarchical_attention_model/map/while/cond/Const_1"
      op: "Const"
      input: "^hierarchical_attention_model/map/while/cond/switch_t"
      attr {
        key: "_output_shapes"
        value {
          list {
            shape {
              dim {
                size: 1
              }
              dim {
                size: 2
              }
            }
          }
        }
      }
      attr {
        key: "dtype"
        value {
          type: DT_INT32
        }
      }
      attr {
        key: "value"
        value {
          tensor {
            dtype: DT_INT32
            tensor_shape {
              dim {
                size: 1
              }
              dim {
                size: 2
              }
            }
            tensor_content: "\000\000\000\000\001\000\000\000"
          }
        }
      }
    }
    node {
      name: "hierarchical_attention_model/map/while/cond/sub/x"
      op: "Const"
      input: "^hierarchical_attention_model/map/while/cond/switch_t"
      attr {
        key: "_output_shapes"
        value {
          list {
            shape {
            }
          }
        }
      }
      attr {
        key: "dtype"
        value {
          type: DT_INT32
        }
      }
      attr {
        key: "value"
        value {
          tensor {
            dtype: DT_INT32
            tensor_shape {
            }
            int_val: 32
          }
        }
      }
    }
    node {
      name: "hierarchical_attention_model/map/while/cond/sub"
      op: "Sub"
      input: "hierarchical_attention_model/map/while/cond/sub/x"
      input: "hierarchical_attention_model/map/while/cond/sub/Switch:1"
      attr {
        key: "T"
        value {
          type: DT_INT32
        }
      }
      attr {
        key: "_output_shapes"
        value {
          list {
            shape {
            }
          }
        }
      }
    }
    node {
      name: "hierarchical_attention_model/map/while/cond/sub/Switch"
      op: "Switch"
      input: "hierarchical_attention_model/map/while/strided_slice_3"
      input: "hierarchical_attention_model/map/while/cond/pred_id"
      attr {
        key: "T"
        value {
          type: DT_INT32
        }
      }
      attr {
        key: "_class"
        value {
          list {
            s: "loc:@hierarchical_attention_model/map/while/strided_slice_3"
          }
        }
      }
      attr {
        key: "_output_shapes"
        value {
          list {
            shape {
            }
            shape {
            }
          }
        }
      }
    }
    node {
      name: "hierarchical_attention_model/map/while/cond/ScatterNd/updates"
      op: "Pack"
      input: "hierarchical_attention_model/map/while/cond/sub"
      attr {
        key: "N"
        value {
          i: 1
        }
      }
      attr {
        key: "T"
        value {
          type: DT_INT32
        }
      }
      attr {
        key: "_output_shapes"
        value {
          list {
            shape {
              dim {
                size: 1
              }
            }
          }
        }
      }
    }
    node {
      name: "hierarchical_attention_model/map/while/cond/ScatterNd"
      op: "ScatterNd"
      input: "hierarchical_attention_model/map/while/cond/Const_1"
      input: "hierarchical_attention_model/map/while/cond/ScatterNd/updates"
      input: "hierarchical_attention_model/map/while/cond/Const"
      attr {
        key: "T"
        value {
          type: DT_INT32
        }
      }
      attr {
        key: "Tindices"
        value {
          type: DT_INT32
        }
      }
      attr {
        key: "_output_shapes"
        value {
          list {
            shape {
              dim {
                size: 1
              }
              dim {
                size: 2
              }
            }
          }
        }
      }
    }
    node {
      name: "hierarchical_attention_model/map/while/cond/Pad"
      op: "Pad"
      input: "hierarchical_attention_model/map/while/cond/Pad/Switch:1"
      input: "hierarchical_attention_model/map/while/cond/ScatterNd"
      attr {
        key: "T"
        value {
          type: DT_INT64
        }
      }
      attr {
        key: "_output_shapes"
        value {
          list {
            shape {
              dim {
                size: -1
              }
            }
          }
        }
      }
    }
    node {
      name: "hierarchical_attention_model/map/while/cond/Pad/Switch"
      op: "Switch"
      input: "hierarchical_attention_model/map/while/concat"
      input: "hierarchical_attention_model/map/while/cond/pred_id"
      attr {
        key: "T"
        value {
          type: DT_INT64
        }
      }
      attr {
        key: "_class"
        value {
          list {
            s: "loc:@hierarchical_attention_model/map/while/concat"
          }
        }
      }
      attr {
        key: "_output_shapes"
        value {
          list {
            shape {
              dim {
                size: -1
              }
            }
            shape {
              dim {
                size: -1
              }
            }
          }
        }
      }
    }
    node {
      name: "hierarchical_attention_model/map/while/cond/strided_slice/stack"
      op: "Const"
      input: "^hierarchical_attention_model/map/while/cond/switch_f"
      attr {
        key: "_output_shapes"
        value {
          list {
            shape {
              dim {
                size: 1
              }
            }
          }
        }
      }
      attr {
        key: "dtype"
        value {
          type: DT_INT32
        }
      }
      attr {
        key: "value"
        value {
          tensor {
            dtype: DT_INT32
            tensor_shape {
              dim {
                size: 1
              }
            }
            int_val: 0
          }
        }
      }
    }
    node {
      name: "hierarchical_attention_model/map/while/cond/strided_slice/stack_1"
      op: "Const"
      input: "^hierarchical_attention_model/map/while/cond/switch_f"
      attr {
        key: "_output_shapes"
        value {
          list {
            shape {
              dim {
                size: 1
              }
            }
          }
        }
      }
      attr {
        key: "dtype"
        value {
          type: DT_INT32
        }
      }
      attr {
        key: "value"
        value {
          tensor {
            dtype: DT_INT32
            tensor_shape {
              dim {
                size: 1
              }
            }
            int_val: 32
          }
        }
      }
    }
    node {
      name: "hierarchical_attention_model/map/while/cond/strided_slice/stack_2"
      op: "Const"
      input: "^hierarchical_attention_model/map/while/cond/switch_f"
      attr {
        key: "_output_shapes"
        value {
          list {
            shape {
              dim {
                size: 1
              }
            }
          }
        }
      }
      attr {
        key: "dtype"
        value {
          type: DT_INT32
        }
      }
      attr {
        key: "value"
        value {
          tensor {
            dtype: DT_INT32
            tensor_shape {
              dim {
                size: 1
              }
            }
            int_val: 1
          }
        }
      }
    }
    node {
      name: "hierarchical_attention_model/map/while/cond/strided_slice"
      op: "StridedSlice"
      input: "hierarchical_attention_model/map/while/cond/strided_slice/Switch"
      input: "hierarchical_attention_model/map/while/cond/strided_slice/stack"
      input: "hierarchical_attention_model/map/while/cond/strided_slice/stack_1"
      input: "hierarchical_attention_model/map/while/cond/strided_slice/stack_2"
      attr {
        key: "Index"
        value {
          type: DT_INT32
        }
      }
      attr {
        key: "T"
        value {
          type: DT_INT64
        }
      }
      attr {
        key: "_output_shapes"
        value {
          list {
            shape {
              dim {
                size: -1
              }
            }
          }
        }
      }
      attr {
        key: "begin_mask"
        value {
          i: 1
        }
      }
    }
    node {
      name: "hierarchical_attention_model/map/while/cond/strided_slice/Switch"
      op: "Switch"
      input: "hierarchical_attention_model/map/while/concat"
      input: "hierarchical_attention_model/map/while/cond/pred_id"
      attr {
        key: "T"
        value {
          type: DT_INT64
        }
      }
      attr {
        key: "_class"
        value {
          list {
            s: "loc:@hierarchical_attention_model/map/while/concat"
          }
        }
      }
      attr {
        key: "_output_shapes"
        value {
          list {
            shape {
              dim {
                size: -1
              }
            }
            shape {
              dim {
                size: -1
              }
            }
          }
        }
      }
    }
    node {
      name: "hierarchical_attention_model/map/while/cond/Merge"
      op: "Merge"
      input: "hierarchical_attention_model/map/while/cond/strided_slice"
      input: "hierarchical_attention_model/map/while/cond/Pad"
      attr {
        key: "N"
        value {
          i: 2
        }
      }
      attr {
        key: "T"
        value {
          type: DT_INT64
        }
      }
      attr {
        key: "_output_shapes"
        value {
          list {
            shape {
              dim {
                size: 32
              }
            }
            shape {
            }
          }
        }
      }
    }
    node {
      name: "hierarchical_attention_model/map/while/Const"
      op: "Const"
      input: "^hierarchical_attention_model/map/while/Identity"
      attr {
        key: "_output_shapes"
        value {
          list {
            shape {
              dim {
                size: 1
              }
            }
          }
        }
      }
      attr {
        key: "dtype"
        value {
          type: DT_INT32
        }
      }
      attr {
        key: "value"
        value {
          tensor {
            dtype: DT_INT32
            tensor_shape {
              dim {
                size: 1
              }
            }
            int_val: 0
          }
        }
      }
    }
    node {
      name: "hierarchical_attention_model/map/while/Sum"
      op: "Sum"
      input: "hierarchical_attention_model/map/while/cond/Merge"
      input: "hierarchical_attention_model/map/while/Const"
      attr {
        key: "T"
        value {
          type: DT_INT64
        }
      }
      attr {
        key: "_output_shapes"
        value {
          list {
            shape {
            }
          }
        }
      }
    }
    node {
      name: "hierarchical_attention_model/map/while/strided_slice_4/stack"
      op: "Const"
      input: "^hierarchical_attention_model/map/while/Identity"
      attr {
        key: "_output_shapes"
        value {
          list {
            shape {
              dim {
                size: 1
              }
            }
          }
        }
      }
      attr {
        key: "dtype"
        value {
          type: DT_INT32
        }
      }
      attr {
        key: "value"
        value {
          tensor {
            dtype: DT_INT32
            tensor_shape {
              dim {
                size: 1
              }
            }
            int_val: 0
          }
        }
      }
    }
    node {
      name: "hierarchical_attention_model/map/while/strided_slice_4/stack_1"
      op: "Pack"
      input: "hierarchical_attention_model/map/while/Sum"
      attr {
        key: "N"
        value {
          i: 1
        }
      }
      attr {
        key: "T"
        value {
          type: DT_INT64
        }
      }
      attr {
        key: "_output_shapes"
        value {
          list {
            shape {
              dim {
                size: 1
              }
            }
          }
        }
      }
    }
    node {
      name: "hierarchical_attention_model/map/while/strided_slice_4/stack_2"
      op: "Const"
      input: "^hierarchical_attention_model/map/while/Identity"
      attr {
        key: "_output_shapes"
        value {
          list {
            shape {
              dim {
                size: 1
              }
            }
          }
        }
      }
      attr {
        key: "dtype"
        value {
          type: DT_INT32
        }
      }
      attr {
        key: "value"
        value {
          tensor {
            dtype: DT_INT32
            tensor_shape {
              dim {
                size: 1
              }
            }
            int_val: 1
          }
        }
      }
    }
    node {
      name: "hierarchical_attention_model/map/while/strided_slice_4/Cast"
      op: "Cast"
      input: "hierarchical_attention_model/map/while/strided_slice_4/stack"
      attr {
        key: "DstT"
        value {
          type: DT_INT64
        }
      }
      attr {
        key: "SrcT"
        value {
          type: DT_INT32
        }
      }
      attr {
        key: "_output_shapes"
        value {
          list {
            shape {
              dim {
                size: 1
              }
            }
          }
        }
      }
    }
    node {
      name: "hierarchical_attention_model/map/while/strided_slice_4/Cast_1"
      op: "Cast"
      input: "hierarchical_attention_model/map/while/strided_slice_4/stack_2"
      attr {
        key: "DstT"
        value {
          type: DT_INT64
        }
      }
      attr {
        key: "SrcT"
        value {
          type: DT_INT32
        }
      }
      attr {
        key: "_output_shapes"
        value {
          list {
            shape {
              dim {
                size: 1
              }
            }
          }
        }
      }
    }
    node {
      name: "hierarchical_attention_model/map/while/strided_slice_4"
      op: "StridedSlice"
      input: "hierarchical_attention_model/map/while/TensorArrayReadV3"
      input: "hierarchical_attention_model/map/while/strided_slice_4/Cast"
      input: "hierarchical_attention_model/map/while/strided_slice_4/stack_1"
      input: "hierarchical_attention_model/map/while/strided_slice_4/Cast_1"
      attr {
        key: "Index"
        value {
          type: DT_INT64
        }
      }
      attr {
        key: "T"
        value {
          type: DT_INT32
        }
      }
      attr {
        key: "_output_shapes"
        value {
          list {
            shape {
              dim {
                size: -1
              }
            }
          }
        }
      }
      attr {
        key: "begin_mask"
        value {
          i: 1
        }
      }
    }
    node {
      name: "hierarchical_attention_model/map/while/split/split_dim"
      op: "Const"
      input: "^hierarchical_attention_model/map/while/Identity"
      attr {
        key: "_output_shapes"
        value {
          list {
            shape {
            }
          }
        }
      }
      attr {
        key: "dtype"
        value {
          type: DT_INT32
        }
      }
      attr {
        key: "value"
        value {
          tensor {
            dtype: DT_INT32
            tensor_shape {
            }
            int_val: 0
          }
        }
      }
    }
    node {
      name: "hierarchical_attention_model/map/while/split"
      op: "SplitV"
      input: "hierarchical_attention_model/map/while/strided_slice_4"
      input: "hierarchical_attention_model/map/while/cond/Merge"
      input: "hierarchical_attention_model/map/while/split/split_dim"
      attr {
        key: "T"
        value {
          type: DT_INT32
        }
      }
      attr {
        key: "_output_shapes"
        value {
          list {
            shape {
              dim {
                size: -1
              }
            }
            shape {
              dim {
                size: -1
              }
            }
            shape {
              dim {
                size: -1
              }
            }
            shape {
              dim {
                size: -1
              }
            }
            shape {
              dim {
                size: -1
              }
            }
            shape {
              dim {
                size: -1
              }
            }
            shape {
              dim {
                size: -1
              }
            }
            shape {
              dim {
                size: -1
              }
            }
            shape {
              dim {
                size: -1
              }
            }
            shape {
              dim {
                size: -1
              }
            }
            shape {
              dim {
                size: -1
              }
            }
            shape {
              dim {
                size: -1
              }
            }
            shape {
              dim {
                size: -1
              }
            }
            shape {
              dim {
                size: -1
              }
            }
            shape {
              dim {
                size: -1
              }
            }
            shape {
              dim {
                size: -1
              }
            }
            shape {
              dim {
                size: -1
              }
            }
            shape {
              dim {
                size: -1
              }
            }
            shape {
              dim {
                size: -1
              }
            }
            shape {
              dim {
                size: -1
              }
            }
            shape {
              dim {
                size: -1
              }
            }
            shape {
              dim {
                size: -1
              }
            }
            shape {
              dim {
                size: -1
              }
            }
            shape {
              dim {
                size: -1
              }
            }
            shape {
              dim {
                size: -1
              }
            }
            shape {
              dim {
                size: -1
              }
            }
            shape {
              dim {
                size: -1
              }
            }
            shape {
              dim {
                size: -1
              }
            }
            shape {
              dim {
                size: -1
              }
            }
            shape {
              dim {
                size: -1
              }
            }
            shape {
              dim {
                size: -1
              }
            }
            shape {
              dim {
                size: -1
              }
            }
          }
        }
      }
      attr {
        key: "num_split"
        value {
          i: 32
        }
      }
    }
    node {
      name: "hierarchical_attention_model/map/while/Shape_1"
      op: "Shape"
      input: "hierarchical_attention_model/map/while/split"
      attr {
        key: "T"
        value {
          type: DT_INT32
        }
      }
      attr {
        key: "_output_shapes"
        value {
          list {
            shape {
              dim {
                size: 1
              }
            }
          }
        }
      }
    }
    node {
      name: "hierarchical_attention_model/map/while/strided_slice_5/stack"
      op: "Const"
      input: "^hierarchical_attention_model/map/while/Identity"
      attr {
        key: "_output_shapes"
        value {
          list {
            shape {
              dim {
                size: 1
              }
            }
          }
        }
      }
      attr {
        key: "dtype"
        value {
          type: DT_INT32
        }
      }
      attr {
        key: "value"
        value {
          tensor {
            dtype: DT_INT32
            tensor_shape {
              dim {
                size: 1
              }
            }
            int_val: 0
          }
        }
      }
    }
    node {
      name: "hierarchical_attention_model/map/while/strided_slice_5/stack_1"
      op: "Const"
      input: "^hierarchical_attention_model/map/while/Identity"
      attr {
        key: "_output_shapes"
        value {
          list {
            shape {
              dim {
                size: 1
              }
            }
          }
        }
      }
      attr {
        key: "dtype"
        value {
          type: DT_INT32
        }
      }
      attr {
        key: "value"
        value {
          tensor {
            dtype: DT_INT32
            tensor_shape {
              dim {
                size: 1
              }
            }
            int_val: 1
          }
        }
      }
    }
    node {
      name: "hierarchical_attention_model/map/while/strided_slice_5/stack_2"
      op: "Const"
      input: "^hierarchical_attention_model/map/while/Identity"
      attr {
        key: "_output_shapes"
        value {
          list {
            shape {
              dim {
                size: 1
              }
            }
          }
        }
      }
      attr {
        key: "dtype"
        value {
          type: DT_INT32
        }
      }
      attr {
        key: "value"
        value {
          tensor {
            dtype: DT_INT32
            tensor_shape {
              dim {
                size: 1
              }
            }
            int_val: 1
          }
        }
      }
    }
    node {
      name: "hierarchical_attention_model/map/while/strided_slice_5"
      op: "StridedSlice"
      input: "hierarchical_attention_model/map/while/Shape_1"
      input: "hierarchical_attention_model/map/while/strided_slice_5/stack"
      input: "hierarchical_attention_model/map/while/strided_slice_5/stack_1"
      input: "hierarchical_attention_model/map/while/strided_slice_5/stack_2"
      attr {
        key: "Index"
        value {
          type: DT_INT32
        }
      }
      attr {
        key: "T"
        value {
          type: DT_INT32
        }
      }
      attr {
        key: "_output_shapes"
        value {
          list {
            shape {
            }
          }
        }
      }
      attr {
        key: "shrink_axis_mask"
        value {
          i: 1
        }
      }
    }
    node {
      name: "hierarchical_attention_model/map/while/Less_3/y"
      op: "Const"
      input: "^hierarchical_attention_model/map/while/Identity"
      attr {
        key: "_output_shapes"
        value {
          list {
            shape {
            }
          }
        }
      }
      attr {
        key: "dtype"
        value {
          type: DT_INT32
        }
      }
      attr {
        key: "value"
        value {
          tensor {
            dtype: DT_INT32
            tensor_shape {
            }
            int_val: 32
          }
        }
      }
    }
    node {
      name: "hierarchical_attention_model/map/while/Less_3"
      op: "Less"
      input: "hierarchical_attention_model/map/while/strided_slice_5"
      input: "hierarchical_attention_model/map/while/Less_3/y"
      attr {
        key: "T"
        value {
          type: DT_INT32
        }
      }
      attr {
        key: "_output_shapes"
        value {
          list {
            shape {
            }
          }
        }
      }
    }
    node {
      name: "hierarchical_attention_model/map/while/cond_1/Switch"
      op: "Switch"
      input: "hierarchical_attention_model/map/while/Less_3"
      input: "hierarchical_attention_model/map/while/Less_3"
      attr {
        key: "T"
        value {
          type: DT_BOOL
        }
      }
      attr {
        key: "_output_shapes"
        value {
          list {
            shape {
            }
            shape {
            }
          }
        }
      }
    }
    node {
      name: "hierarchical_attention_model/map/while/cond_1/switch_t"
      op: "Identity"
      input: "hierarchical_attention_model/map/while/cond_1/Switch:1"
      attr {
        key: "T"
        value {
          type: DT_BOOL
        }
      }
      attr {
        key: "_output_shapes"
        value {
          list {
            shape {
            }
          }
        }
      }
    }
    node {
      name: "hierarchical_attention_model/map/while/cond_1/switch_f"
      op: "Identity"
      input: "hierarchical_attention_model/map/while/cond_1/Switch"
      attr {
        key: "T"
        value {
          type: DT_BOOL
        }
      }
      attr {
        key: "_output_shapes"
        value {
          list {
            shape {
            }
          }
        }
      }
    }
    node {
      name: "hierarchical_attention_model/map/while/cond_1/pred_id"
      op: "Identity"
      input: "hierarchical_attention_model/map/while/Less_3"
      attr {
        key: "T"
        value {
          type: DT_BOOL
        }
      }
      attr {
        key: "_output_shapes"
        value {
          list {
            shape {
            }
          }
        }
      }
    }
    node {
      name: "hierarchical_attention_model/map/while/cond_1/Const"
      op: "Const"
      input: "^hierarchical_attention_model/map/while/cond_1/switch_t"
      attr {
        key: "_output_shapes"
        value {
          list {
            shape {
              dim {
                size: 2
              }
            }
          }
        }
      }
      attr {
        key: "dtype"
        value {
          type: DT_INT32
        }
      }
      attr {
        key: "value"
        value {
          tensor {
            dtype: DT_INT32
            tensor_shape {
              dim {
                size: 2
              }
            }
            tensor_content: "\001\000\000\000\002\000\000\000"
          }
        }
      }
    }
    node {
      name: "hierarchical_attention_model/map/while/cond_1/Const_1"
      op: "Const"
      input: "^hierarchical_attention_model/map/while/cond_1/switch_t"
      attr {
        key: "_output_shapes"
        value {
          list {
            shape {
              dim {
                size: 1
              }
              dim {
                size: 2
              }
            }
          }
        }
      }
      attr {
        key: "dtype"
        value {
…
strided_slice_8/stack_1:0\nbhierarchical_attention_model/time_distributed/bi_rnn/bidirectional/while/strided_slice_8/stack_2:0\nZhierarchical_attention_model/time_distributed/bi_rnn/bidirectional/while/strided_slice_8:0\nPhierarchical_attention_model/time_distributed/bi_rnn/bidirectional/while/sub/x:0\nNhierarchical_attention_model/time_distributed/bi_rnn/bidirectional/while/sub:0\022\347\001\n\177hierarchical_attention_model/time_distributed/bi_rnn/bidirectional/TensorArrayUnstack/TensorArrayScatter/TensorArrayScatterV3:0\022dhierarchical_attention_model/time_distributed/bi_rnn/bidirectional/while/TensorArrayReadV3/Enter_1:0\022\272\001\nWhierarchical_attention_model/time_distributed/bi_rnn/bidirectional/forward_gru/kernel:0\022_hierarchical_attention_model/time_distributed/bi_rnn/bidirectional/while/ReadVariableOp/Enter:0\022\266\001\n]hierarchical_attention_model/time_distributed/bi_rnn/bidirectional/while/maximum_iterations:0\022Uhierarchical_attention_model/time_distributed/bi_rnn/bidirectional/while/Less/Enter:0\022\272\001\nUhierarchical_attention_model/time_distributed/bi_rnn/bidirectional/forward_gru/bias:0\022ahierarchical_attention_model/time_distributed/bi_rnn/bidirectional/while/ReadVariableOp_3/Enter:0\022\257\001\nThierarchical_attention_model/time_distributed/bi_rnn/bidirectional/strided_slice_1:0\022Whierarchical_attention_model/time_distributed/bi_rnn/bidirectional/while/Less_1/Enter:0\022\312\001\nRhierarchical_attention_model/time_distributed/bi_rnn/bidirectional/TensorArray_1:0\022thierarchical_attention_model/time_distributed/bi_rnn/bidirectional/while/TensorArrayWrite/TensorArrayWriteV3/Enter:0\022\266\001\nPhierarchical_attention_model/time_distributed/bi_rnn/bidirectional/TensorArray:0\022bhierarchical_attention_model/time_distributed/bi_rnn/bidirectional/while/TensorArrayReadV3/Enter:0\022\306\001\nahierarchical_attention_model/time_distributed/bi_rnn/bidirectional/forward_gru/recurrent_kernel:0\022ahierarchical_attention_model/time_distributed/bi_rnn/bidirectional/while/ReadVariableOp_6/Enter:0RPhierarchical_attention_model/time_distributed/bi_rnn/bidirectional/while/Enter:0RRhierarchical_attention_model/time_distributed/bi_rnn/bidirectional/while/Enter_1:0RRhierarchical_attention_model/time_distributed/bi_rnn/bidirectional/while/Enter_2:0RRhierarchical_attention_model/time_distributed/bi_rnn/bidirectional/while/Enter_3:0Z]hierarchical_attention_model/time_distributed/bi_rnn/bidirectional/while/maximum_iterations:0"
        value: "\nXhierarchical_attention_model/time_distributed/bi_rnn/bidirectional/while_1/while_context\020 \030\001 \001*Uhierarchical_attention_model/time_distributed/bi_rnn/bidirectional/while_1/LoopCond:02Rhierarchical_attention_model/time_distributed/bi_rnn/bidirectional/while_1/Merge:0:Uhierarchical_attention_model/time_distributed/bi_rnn/bidirectional/while_1/Identity:0BQhierarchical_attention_model/time_distributed/bi_rnn/bidirectional/while_1/Exit:0BShierarchical_attention_model/time_distributed/bi_rnn/bidirectional/while_1/Exit_1:0BShierarchical_attention_model/time_distributed/bi_rnn/bidirectional/while_1/Exit_2:0BShierarchical_attention_model/time_distributed/bi_rnn/bidirectional/while_1/Exit_3:0J\206p\n\201\001hierarchical_attention_model/time_distributed/bi_rnn/bidirectional/TensorArrayUnstack_1/TensorArrayScatter/TensorArrayScatterV3:0\nRhierarchical_attention_model/time_distributed/bi_rnn/bidirectional/TensorArray_2:0\nRhierarchical_attention_model/time_distributed/bi_rnn/bidirectional/TensorArray_3:0\nVhierarchical_attention_model/time_distributed/bi_rnn/bidirectional/backward_gru/bias:0\nXhierarchical_attention_model/time_distributed/bi_rnn/bidirectional/backward_gru/kernel:0\nbhierarchical_attention_model/time_distributed/bi_rnn/bidirectional/backward_gru/recurrent_kernel:0\nUhierarchical_attention_model/time_distributed/bi_rnn/bidirectional/strided_slice_14:0\nRhierarchical_attention_model/time_distributed/bi_rnn/bidirectional/while_1/Add_2:0\nRhierarchical_attention_model/time_distributed/bi_rnn/bidirectional/while_1/Add_4:0\nThierarchical_attention_model/time_distributed/bi_rnn/bidirectional/while_1/BiasAdd:0\nVhierarchical_attention_model/time_distributed/bi_rnn/bidirectional/while_1/BiasAdd_1:0\nVhierarchical_attention_model/time_distributed/bi_rnn/bidirectional/while_1/BiasAdd_2:0\nRhierarchical_attention_model/time_distributed/bi_rnn/bidirectional/while_1/Const:0\nThierarchical_attention_model/time_distributed/bi_rnn/bidirectional/while_1/Const_1:0\nThierarchical_attention_model/time_distributed/bi_rnn/bidirectional/while_1/Const_2:0\nThierarchical_attention_model/time_distributed/bi_rnn/bidirectional/while_1/Const_3:0\nRhierarchical_attention_model/time_distributed/bi_rnn/bidirectional/while_1/Enter:0\nThierarchical_attention_model/time_distributed/bi_rnn/bidirectional/while_1/Enter_1:0\nThierarchical_attention_model/time_distributed/bi_rnn/bidirectional/while_1/Enter_2:0\nThierarchical_attention_model/time_distributed/bi_rnn/bidirectional/while_1/Enter_3:0\nQhierarchical_attention_model/time_distributed/bi_rnn/bidirectional/while_1/Exit:0\nShierarchical_attention_model/time_distributed/bi_rnn/bidirectional/while_1/Exit_1:0\nShierarchical_attention_model/time_distributed/bi_rnn/bidirectional/while_1/Exit_2:0\nShierarchical_attention_model/time_distributed/bi_rnn/bidirectional/while_1/Exit_3:0\nUhierarchical_attention_model/time_distributed/bi_rnn/bidirectional/while_1/Identity:0\nWhierarchical_attention_model/time_distributed/bi_rnn/bidirectional/while_1/Identity_1:0\nWhierarchical_attention_model/time_distributed/bi_rnn/bidirectional/while_1/Identity_2:0\nWhierarchical_attention_model/time_distributed/bi_rnn/bidirectional/while_1/Identity_3:0\nWhierarchical_attention_model/time_distributed/bi_rnn/bidirectional/while_1/Less/Enter:0\nQhierarchical_attention_model/time_distributed/bi_rnn/bidirectional/while_1/Less:0\nYhierarchical_attention_model/time_distributed/bi_rnn/bidirectional/while_1/Less_1/Enter:0\nShierarchical_attention_model/time_distributed/bi_rnn/bidirectional/while_1/Less_1:0\nWhierarchical_attention_model/time_distributed/bi_rnn/bidirectional/while_1/LogicalAnd:0\nUhierarchical_attention_model/time_distributed/bi_rnn/bidirectional/while_1/LoopCond:0\nShierarchical_attention_model/time_distributed/bi_rnn/bidirectional/while_1/MatMul:0\nUhierarchical_attention_model/time_distributed/bi_rnn/bidirectional/while_1/MatMul_1:0\nUhierarchical_attention_model/time_distributed/bi_rnn/bidirectional/while_1/MatMul_2:0\nUhierarchical_attention_model/time_distributed/bi_rnn/bidirectional/while_1/MatMul_3:0\nUhierarchical_attention_model/time_distributed/bi_rnn/bidirectional/while_1/MatMul_4:0\nUhierarchical_attention_model/time_distributed/bi_rnn/bidirectional/while_1/MatMul_5:0\nRhierarchical_attention_model/time_distributed/bi_rnn/bidirectional/while_1/Merge:0\nRhierarchical_attention_model/time_distributed/bi_rnn/bidirectional/while_1/Merge:1\nThierarchical_attention_model/time_distributed/bi_rnn/bidirectional/while_1/Merge_1:0\nThierarchical_attention_model/time_distributed/bi_rnn/bidirectional/while_1/Merge_1:1\nThierarchical_attention_model/time_distributed/bi_rnn/bidirectional/while_1/Merge_2:0\nThierarchical_attention_model/time_distributed/bi_rnn/bidirectional/while_1/Merge_2:1\nThierarchical_attention_model/time_distributed/bi_rnn/bidirectional/while_1/Merge_3:0\nThierarchical_attention_model/time_distributed/bi_rnn/bidirectional/while_1/Merge_3:1\nPhierarchical_attention_model/time_distributed/bi_rnn/bidirectional/while_1/Mul:0\nRhierarchical_attention_model/time_distributed/bi_rnn/bidirectional/while_1/Mul_1:0\nZhierarchical_attention_model/time_distributed/bi_rnn/bidirectional/while_1/NextIteration:0\n\\hierarchical_attention_model/time_distributed/bi_rnn/bidirectional/while_1/NextIteration_1:0\n\\hierarchical_attention_model/time_distributed/bi_rnn/bidirectional/while_1/NextIteration_2:0\n\\hierarchical_attention_model/time_distributed/bi_rnn/bidirectional/while_1/NextIteration_3:0\nahierarchical_attention_model/time_distributed/bi_rnn/bidirectional/while_1/ReadVariableOp/Enter:0\n[hierarchical_attention_model/time_distributed/bi_rnn/bidirectional/while_1/ReadVariableOp:0\n]hierarchical_attention_model/time_distributed/bi_rnn/bidirectional/while_1/ReadVariableOp_1:0\n]hierarchical_attention_model/time_distributed/bi_rnn/bidirectional/while_1/ReadVariableOp_2:0\nchierarchical_attention_model/time_distributed/bi_rnn/bidirectional/while_1/ReadVariableOp_3/Enter:0\n]hierarchical_attention_model/time_distributed/bi_rnn/bidirectional/while_1/ReadVariableOp_3:0\n]hierarchical_attention_model/time_distributed/bi_rnn/bidirectional/while_1/ReadVariableOp_4:0\n]hierarchical_attention_model/time_distributed/bi_rnn/bidirectional/while_1/ReadVariableOp_5:0\nchierarchical_attention_model/time_distributed/bi_rnn/bidirectional/while_1/ReadVariableOp_6/Enter:0\n]hierarchical_attention_model/time_distributed/bi_rnn/bidirectional/while_1/ReadVariableOp_6:0\n]hierarchical_attention_model/time_distributed/bi_rnn/bidirectional/while_1/ReadVariableOp_7:0\n]hierarchical_attention_model/time_distributed/bi_rnn/bidirectional/while_1/ReadVariableOp_8:0\nShierarchical_attention_model/time_distributed/bi_rnn/bidirectional/while_1/Switch:0\nShierarchical_attention_model/time_distributed/bi_rnn/bidirectional/while_1/Switch:1\nUhierarchical_attention_model/time_distributed/bi_rnn/bidirectional/while_1/Switch_1:0\nUhierarchical_attention_model/time_distributed/bi_rnn/bidirectional/while_1/Switch_1:1\nUhierarchical_attention_model/time_distributed/bi_rnn/bidirectional/while_1/Switch_2:0\nUhierarchical_attention_model/time_distributed/bi_rnn/bidirectional/while_1/Switch_2:1\nUhierarchical_attention_model/time_distributed/bi_rnn/bidirectional/while_1/Switch_3:0\nUhierarchical_attention_model/time_distributed/bi_rnn/bidirectional/while_1/Switch_3:1\nQhierarchical_attention_model/time_distributed/bi_rnn/bidirectional/while_1/Tanh:0\ndhierarchical_attention_model/time_distributed/bi_rnn/bidirectional/while_1/TensorArrayReadV3/Enter:0\nfhierarchical_attention_model/time_distributed/bi_rnn/bidirectional/while_1/TensorArrayReadV3/Enter_1:0\n^hierarchical_attention_model/time_distributed/bi_rnn/bidirectional/while_1/TensorArrayReadV3:0\nvhierarchical_attention_model/time_distributed/bi_rnn/bidirectional/while_1/TensorArrayWrite/TensorArrayWriteV3/Enter:0\nphierarchical_attention_model/time_distributed/bi_rnn/bidirectional/while_1/TensorArrayWrite/TensorArrayWriteV3:0\nRhierarchical_attention_model/time_distributed/bi_rnn/bidirectional/while_1/add/y:0\nPhierarchical_attention_model/time_distributed/bi_rnn/bidirectional/while_1/add:0\nRhierarchical_attention_model/time_distributed/bi_rnn/bidirectional/while_1/add_1:0\nRhierarchical_attention_model/time_distributed/bi_rnn/bidirectional/while_1/add_3:0\nRhierarchical_attention_model/time_distributed/bi_rnn/bidirectional/while_1/add_5:0\nRhierarchical_attention_model/time_distributed/bi_rnn/bidirectional/while_1/add_6:0\nThierarchical_attention_model/time_distributed/bi_rnn/bidirectional/while_1/add_7/y:0\nRhierarchical_attention_model/time_distributed/bi_rnn/bidirectional/while_1/add_7:0\ndhierarchical_attention_model/time_distributed/bi_rnn/bidirectional/while_1/clip_by_value/Minimum/y:0\nbhierarchical_attention_model/time_distributed/bi_rnn/bidirectional/while_1/clip_by_value/Minimum:0\n\\hierarchical_attention_model/time_distributed/bi_rnn/bidirectional/while_1/clip_by_value/y:0\nZhierarchical_attention_model/time_distributed/bi_rnn/bidirectional/while_1/clip_by_value:0\nfhierarchical_attention_model/time_distributed/bi_rnn/bidirectional/while_1/clip_by_value_1/Minimum/y:0\ndhierarchical_attention_model/time_distributed/bi_rnn/bidirectional/while_1/clip_by_value_1/Minimum:0\n^hierarchical_attention_model/time_distributed/bi_rnn/bidirectional/while_1/clip_by_value_1/y:0\n\\hierarchical_attention_model/time_distributed/bi_rnn/bidirectional/while_1/clip_by_value_1:0\n_hierarchical_attention_model/time_distributed/bi_rnn/bidirectional/while_1/maximum_iterations:0\nRhierarchical_attention_model/time_distributed/bi_rnn/bidirectional/while_1/mul_2:0\nRhierarchical_attention_model/time_distributed/bi_rnn/bidirectional/while_1/mul_3:0\nRhierarchical_attention_model/time_distributed/bi_rnn/bidirectional/while_1/mul_4:0\n`hierarchical_attention_model/time_distributed/bi_rnn/bidirectional/while_1/strided_slice/stack:0\nbhierarchical_attention_model/time_distributed/bi_rnn/bidirectional/while_1/strided_slice/stack_1:0\nbhierarchical_attention_model/time_distributed/bi_rnn/bidirectional/while_1/strided_slice/stack_2:0\nZhierarchical_attention_model/time_distributed/bi_rnn/bidirectional/while_1/strided_slice:0\nbhierarchical_attention_model/time_distributed/bi_rnn/bidirectional/while_1/strided_slice_1/stack:0\ndhierarchical_attention_model/time_distributed/bi_rnn/bidirectional/while_1/strided_slice_1/stack_1:0\ndhierarchical_attention_model/time_distributed/bi_rnn/bidirectional/while_1/strided_slice_1/stack_2:0\n\\hierarchical_attention_model/time_distributed/bi_rnn/bidirectional/while_1/strided_slice_1:0\nbhierarchical_attention_model/time_distributed/bi_rnn/bidirectional/while_1/strided_slice_2/stack:0\ndhierarchical_attention_model/time_distributed/bi_rnn/bidirectional/while_1/strided_slice_2/stack_1:0\ndhierarchical_attention_model/time_distributed/bi_rnn/bidirectional/while_1/strided_slice_2/stack_2:0\n\\hierarchical_attention_model/time_distributed/bi_rnn/bidirectional/while_1/strided_slice_2:0\nbhierarchical_attention_model/time_distributed/bi_rnn/bidirectional/while_1/strided_slice_3/stack:0\ndhierarchical_attention_model/time_distributed/bi_rnn/bidirectional/while_1/strided_slice_3/stack_1:0\ndhierarchical_attention_model/time_distributed/bi_rnn/bidirectional/while_1/strided_slice_3/stack_2:0\n\\hierarchical_attention_model/time_distributed/bi_rnn/bidirectional/while_1/strided_slice_3:0\nbhierarchical_attention_model/time_distributed/bi_rnn/bidirectional/while_1/strided_slice_4/stack:0\ndhierarchical_attention_model/time_distributed/bi_rnn/bidirectional/while_1/strided_slice_4/stack_1:0\ndhierarchical_attention_model/time_distributed/bi_rnn/bidirectional/while_1/strided_slice_4/stack_2:0\n\\hierarchical_attention_model/time_distributed/bi_rnn/bidirectional/while_1/strided_slice_4:0\nbhierarchical_attention_model/time_distributed/bi_rnn/bidirectional/while_1/strided_slice_5/stack:0\ndhierarchical_attention_model/time_distributed/bi_rnn/bidirectional/while_1/strided_slice_5/stack_1:0\ndhierarchical_attention_model/time_distributed/bi_rnn/bidirectional/while_1/strided_slice_5/stack_2:0\n\\hierarchical_attention_model/time_distributed/bi_rnn/bidirectional/while_1/strided_slice_5:0\nbhierarchical_attention_model/time_distributed/bi_rnn/bidirectional/while_1/strided_slice_6/stack:0\ndhierarchical_attention_model/time_distributed/bi_rnn/bidirectional/while_1/strided_slice_6/stack_1:0\ndhierarchical_attention_model/time_distributed/bi_rnn/bidirectional/while_1/strided_slice_6/stack_2:0\n\\hierarchical_attention_model/time_distributed/bi_rnn/bidirectional/while_1/strided_slice_6:0\nbhierarchical_attention_model/time_distributed/bi_rnn/bidirectional/while_1/strided_slice_7/stack:0\ndhierarchical_attention_model/time_distributed/bi_rnn/bidirectional/while_1/strided_slice_7/stack_1:0\ndhierarchical_attention_model/time_distributed/bi_rnn/bidirectional/while_1/strided_slice_7/stack_2:0\n\\hierarchical_attention_model/time_distributed/bi_rnn/bidirectional/while_1/strided_slice_7:0\nbhierarchical_attention_model/time_distributed/bi_rnn/bidirectional/while_1/strided_slice_8/stack:0\ndhierarchical_attention_model/time_distributed/bi_rnn/bidirectional/while_1/strided_slice_8/stack_1:0\ndhierarchical_attention_model/time_distributed/bi_rnn/bidirectional/while_1/strided_slice_8/stack_2:0\n\\hierarchical_attention_model/time_distributed/bi_rnn/bidirectional/while_1/strided_slice_8:0\nRhierarchical_attention_model/time_distributed/bi_rnn/bidirectional/while_1/sub/x:0\nPhierarchical_attention_model/time_distributed/bi_rnn/bidirectional/while_1/sub:0\022\272\001\n_hierarchical_attention_model/time_distributed/bi_rnn/bidirectional/while_1/maximum_iterations:0\022Whierarchical_attention_model/time_distributed/bi_rnn/bidirectional/while_1/Less/Enter:0\022\314\001\nRhierarchical_attention_model/time_distributed/bi_rnn/bidirectional/TensorArray_3:0\022vhierarchical_attention_model/time_distributed/bi_rnn/bidirectional/while_1/TensorArrayWrite/TensorArrayWriteV3/Enter:0\022\262\001\nUhierarchical_attention_model/time_distributed/bi_rnn/bidirectional/strided_slice_14:0\022Yhierarchical_attention_model/time_distributed/bi_rnn/bidirectional/while_1/Less_1/Enter:0\022\275\001\nXhierarchical_attention_model/time_distributed/bi_rnn/bidirectional/backward_gru/kernel:0\022ahierarchical_attention_model/time_distributed/bi_rnn/bidirectional/while_1/ReadVariableOp/Enter:0\022\275\001\nVhierarchical_attention_model/time_distributed/bi_rnn/bidirectional/backward_gru/bias:0\022chierarchical_attention_model/time_distributed/bi_rnn/bidirectional/while_1/ReadVariableOp_3/Enter:0\022\272\001\nRhierarchical_attention_model/time_distributed/bi_rnn/bidirectional/TensorArray_2:0\022dhierarchical_attention_model/time_distributed/bi_rnn/bidirectional/while_1/TensorArrayReadV3/Enter:0\022\311\001\nbhierarchical_attention_model/time_distributed/bi_rnn/bidirectional/backward_gru/recurrent_kernel:0\022chierarchical_attention_model/time_distributed/bi_rnn/bidirectional/while_1/ReadVariableOp_6/Enter:0\022\354\001\n\201\001hierarchical_attention_model/time_distributed/bi_rnn/bidirectional/TensorArrayUnstack_1/TensorArrayScatter/TensorArrayScatterV3:0\022fhierarchical_attention_model/time_distributed/bi_rnn/bidirectional/while_1/TensorArrayReadV3/Enter_1:0RRhierarchical_attention_model/time_distributed/bi_rnn/bidirectional/while_1/Enter:0RThierarchical_attention_model/time_distributed/bi_rnn/bidirectional/while_1/Enter_1:0RThierarchical_attention_model/time_distributed/bi_rnn/bidirectional/while_1/Enter_2:0RThierarchical_attention_model/time_distributed/bi_rnn/bidirectional/while_1/Enter_3:0Z_hierarchical_attention_model/time_distributed/bi_rnn/bidirectional/while_1/maximum_iterations:0"
        value: "\nUhierarchical_attention_model/doc_encoder/bi_rnn_1/bidirectional_1/while/while_context\020 \030\001 \001*Rhierarchical_attention_model/doc_encoder/bi_rnn_1/bidirectional_1/while/LoopCond:02Ohierarchical_attention_model/doc_encoder/bi_rnn_1/bidirectional_1/while/Merge:0:Rhierarchical_attention_model/doc_encoder/bi_rnn_1/bidirectional_1/while/Identity:0BNhierarchical_attention_model/doc_encoder/bi_rnn_1/bidirectional_1/while/Exit:0BPhierarchical_attention_model/doc_encoder/bi_rnn_1/bidirectional_1/while/Exit_1:0BPhierarchical_attention_model/doc_encoder/bi_rnn_1/bidirectional_1/while/Exit_2:0BPhierarchical_attention_model/doc_encoder/bi_rnn_1/bidirectional_1/while/Exit_3:0J\316l\nOhierarchical_attention_model/doc_encoder/bi_rnn_1/bidirectional_1/TensorArray:0\n~hierarchical_attention_model/doc_encoder/bi_rnn_1/bidirectional_1/TensorArrayUnstack/TensorArrayScatter/TensorArrayScatterV3:0\nQhierarchical_attention_model/doc_encoder/bi_rnn_1/bidirectional_1/TensorArray_1:0\nVhierarchical_attention_model/doc_encoder/bi_rnn_1/bidirectional_1/forward_gru_1/bias:0\nXhierarchical_attention_model/doc_encoder/bi_rnn_1/bidirectional_1/forward_gru_1/kernel:0\nbhierarchical_attention_model/doc_encoder/bi_rnn_1/bidirectional_1/forward_gru_1/recurrent_kernel:0\nShierarchical_attention_model/doc_encoder/bi_rnn_1/bidirectional_1/strided_slice_1:0\nOhierarchical_attention_model/doc_encoder/bi_rnn_1/bidirectional_1/while/Add_2:0\nOhierarchical_attention_model/doc_encoder/bi_rnn_1/bidirectional_1/while/Add_4:0\nQhierarchical_attention_model/doc_encoder/bi_rnn_1/bidirectional_1/while/BiasAdd:0\nShierarchical_attention_model/doc_encoder/bi_rnn_1/bidirectional_1/while/BiasAdd_1:0\nShierarchical_attention_model/doc_encoder/bi_rnn_1/bidirectional_1/while/BiasAdd_2:0\nOhierarchical_attention_model/doc_encoder/bi_rnn_1/bidirectional_1/while/Const:0\nQhierarchical_attention_model/doc_encoder/bi_rnn_1/bidirectional_1/while/Const_1:0\nQhierarchical_attention_model/doc_encoder/bi_rnn_1/bidirectional_1/while/Const_2:0\nQhierarchical_attention_model/doc_encoder/bi_rnn_1/bidirectional_1/while/Const_3:0\nOhierarchical_attention_model/doc_encoder/bi_rnn_1/bidirectional_1/while/Enter:0\nQhierarchical_attention_model/doc_encoder/bi_rnn_1/bidirectional_1/while/Enter_1:0\nQhierarchical_attention_model/doc_encoder/bi_rnn_1/bidirectional_1/while/Enter_2:0\nQhierarchical_attention_model/doc_encoder/bi_rnn_1/bidirectional_1/while/Enter_3:0\nNhierarchical_attention_model/doc_encoder/bi_rnn_1/bidirectional_1/while/Exit:0\nPhierarchical_attention_model/doc_encoder/bi_rnn_1/bidirectional_1/while/Exit_1:0\nPhierarchical_attention_model/doc_encoder/bi_rnn_1/bidirectional_1/while/Exit_2:0\nPhierarchical_attention_model/doc_encoder/bi_rnn_1/bidirectional_1/while/Exit_3:0\nRhierarchical_attention_model/doc_encoder/bi_rnn_1/bidirectional_1/while/Identity:0\nThierarchical_attention_model/doc_encoder/bi_rnn_1/bidirectional_1/while/Identity_1:0\nThierarchical_attention_model/doc_encoder/bi_rnn_1/bidirectional_1/while/Identity_2:0\nThierarchical_attention_model/doc_encoder/bi_rnn_1/bidirectional_1/while/Identity_3:0\nThierarchical_attention_model/doc_encoder/bi_rnn_1/bidirectional_1/while/Less/Enter:0\nNhierarchical_attention_model/doc_encoder/bi_rnn_1/bidirectional_1/while/Less:0\nVhierarchical_attention_model/doc_encoder/bi_rnn_1/bidirectional_1/while/Less_1/Enter:0\nPhierarchical_attention_model/doc_encoder/bi_rnn_1/bidirectional_1/while/Less_1:0\nThierarchical_attention_model/doc_encoder/bi_rnn_1/bidirectional_1/while/LogicalAnd:0\nRhierarchical_attention_model/doc_encoder/bi_rnn_1/bidirectional_1/while/LoopCond:0\nPhierarchical_attention_model/doc_encoder/bi_rnn_1/bidirectional_1/while/MatMul:0\nRhierarchical_attention_model/doc_encoder/bi_rnn_1/bidirectional_1/while/MatMul_1:0\nRhierarchical_attention_model/doc_encoder/bi_rnn_1/bidirectional_1/while/MatMul_2:0\nRhierarchical_attention_model/doc_encoder/bi_rnn_1/bidirectional_1/while/MatMul_3:0\nRhierarchical_attention_model/doc_encoder/bi_rnn_1/bidirectional_1/while/MatMul_4:0\nRhierarchical_attention_model/doc_encoder/bi_rnn_1/bidirectional_1/while/MatMul_5:0\nOhierarchical_attention_model/doc_encoder/bi_rnn_1/bidirectional_1/while/Merge:0\nOhierarchical_attention_model/doc_encoder/bi_rnn_1/bidirectional_1/while/Merge:1\nQhierarchical_attention_model/doc_encoder/bi_rnn_1/bidirectional_1/while/Merge_1:0\nQhierarchical_attention_model/doc_encoder/bi_rnn_1/bidirectional_1/while/Merge_1:1\nQhierarchical_attention_model/doc_encoder/bi_rnn_1/bidirectional_1/while/Merge_2:0\nQhierarchical_attention_model/doc_encoder/bi_rnn_1/bidirectional_1/while/Merge_2:1\nQhierarchical_attention_model/doc_encoder/bi_rnn_1/bidirectional_1/while/Merge_3:0\nQhierarchical_attention_model/doc_encoder/bi_rnn_1/bidirectional_1/while/Merge_3:1\nMhierarchical_attention_model/doc_encoder/bi_rnn_1/bidirectional_1/while/Mul:0\nOhierarchical_attention_model/doc_encoder/bi_rnn_1/bidirectional_1/while/Mul_1:0\nWhierarchical_attention_model/doc_encoder/bi_rnn_1/bidirectional_1/while/NextIteration:0\nYhierarchical_attention_model/doc_encoder/bi_rnn_1/bidirectional_1/while/NextIteration_1:0\nYhierarchical_attention_model/doc_encoder/bi_rnn_1/bidirectional_1/while/NextIteration_2:0\nYhierarchical_attention_model/doc_encoder/bi_rnn_1/bidirectional_1/while/NextIteration_3:0\n^hierarchical_attention_model/doc_encoder/bi_rnn_1/bidirectional_1/while/ReadVariableOp/Enter:0\nXhierarchical_attention_model/doc_encoder/bi_rnn_1/bidirectional_1/while/ReadVariableOp:0\nZhierarchical_attention_model/doc_encoder/bi_rnn_1/bidirectional_1/while/ReadVariableOp_1:0\nZhierarchical_attention_model/doc_encoder/bi_rnn_1/bidirectional_1/while/ReadVariableOp_2:0\n`hierarchical_attention_model/doc_encoder/bi_rnn_1/bidirectional_1/while/ReadVariableOp_3/Enter:0\nZhierarchical_attention_model/doc_encoder/bi_rnn_1/bidirectional_1/while/ReadVariableOp_3:0\nZhierarchical_attention_model/doc_encoder/bi_rnn_1/bidirectional_1/while/ReadVariableOp_4:0\nZhierarchical_attention_model/doc_encoder/bi_rnn_1/bidirectional_1/while/ReadVariableOp_5:0\n`hierarchical_attention_model/doc_encoder/bi_rnn_1/bidirectional_1/while/ReadVariableOp_6/Enter:0\nZhierarchical_attention_model/doc_encoder/bi_rnn_1/bidirectional_1/while/ReadVariableOp_6:0\nZhierarchical_attention_model/doc_encoder/bi_rnn_1/bidirectional_1/while/ReadVariableOp_7:0\nZhierarchical_attention_model/doc_encoder/bi_rnn_1/bidirectional_1/while/ReadVariableOp_8:0\nPhierarchical_attention_model/doc_encoder/bi_rnn_1/bidirectional_1/while/Switch:0\nPhierarchical_attention_model/doc_encoder/bi_rnn_1/bidirectional_1/while/Switch:1\nRhierarchical_attention_model/doc_encoder/bi_rnn_1/bidirectional_1/while/Switch_1:0\nRhierarchical_attention_model/doc_encoder/bi_rnn_1/bidirectional_1/while/Switch_1:1\nRhierarchical_attention_model/doc_encoder/bi_rnn_1/bidirectional_1/while/Switch_2:0\nRhierarchical_attention_model/doc_encoder/bi_rnn_1/bidirectional_1/while/Switch_2:1\nRhierarchical_attention_model/doc_encoder/bi_rnn_1/bidirectional_1/while/Switch_3:0\nRhierarchical_attention_model/doc_encoder/bi_rnn_1/bidirectional_1/while/Switch_3:1\nNhierarchical_attention_model/doc_encoder/bi_rnn_1/bidirectional_1/while/Tanh:0\nahierarchical_attention_model/doc_encoder/bi_rnn_1/bidirectional_1/while/TensorArrayReadV3/Enter:0\nchierarchical_attention_model/doc_encoder/bi_rnn_1/bidirectional_1/while/TensorArrayReadV3/Enter_1:0\n[hierarchical_attention_model/doc_encoder/bi_rnn_1/bidirectional_1/while/TensorArrayReadV3:0\nshierarchical_attention_model/doc_encoder/bi_rnn_1/bidirectional_1/while/TensorArrayWrite/TensorArrayWriteV3/Enter:0\nmhierarchical_attention_model/doc_encoder/bi_rnn_1/bidirectional_1/while/TensorArrayWrite/TensorArrayWriteV3:0\nOhierarchical_attention_model/doc_encoder/bi_rnn_1/bidirectional_1/while/add/y:0\nMhierarchical_attention_model/doc_encoder/bi_rnn_1/bidirectional_1/while/add:0\nOhierarchical_attention_model/doc_encoder/bi_rnn_1/bidirectional_1/while/add_1:0\nOhierarchical_attention_model/doc_encoder/bi_rnn_1/bidirectional_1/while/add_3:0\nOhierarchical_attention_model/doc_encoder/bi_rnn_1/bidirectional_1/while/add_5:0\nOhierarchical_attention_model/doc_encoder/bi_rnn_1/bidirectional_1/while/add_6:0\nQhierarchical_attention_model/doc_encoder/bi_rnn_1/bidirectional_1/while/add_7/y:0\nOhierarchical_attention_model/doc_encoder/bi_rnn_1/bidirectional_1/while/add_7:0\nahierarchical_attention_model/doc_encoder/bi_rnn_1/bidirectional_1/while/clip_by_value/Minimum/y:0\n_hierarchical_attention_model/doc_encoder/bi_rnn_1/bidirectional_1/while/clip_by_value/Minimum:0\nYhierarchical_attention_model/doc_encoder/bi_rnn_1/bidirectional_1/while/clip_by_value/y:0\nWhierarchical_attention_model/doc_encoder/bi_rnn_1/bidirectional_1/while/clip_by_value:0\nchierarchical_attention_model/doc_encoder/bi_rnn_1/bidirectional_1/while/clip_by_value_1/Minimum/y:0\nahierarchical_attention_model/doc_encoder/bi_rnn_1/bidirectional_1/while/clip_by_value_1/Minimum:0\n[hierarchical_attention_model/doc_encoder/bi_rnn_1/bidirectional_1/while/clip_by_value_1/y:0\nYhierarchical_attention_model/doc_encoder/bi_rnn_1/bidirectional_1/while/clip_by_value_1:0\n\\hierarchical_attention_model/doc_encoder/bi_rnn_1/bidirectional_1/while/maximum_iterations:0\nOhierarchical_attention_model/doc_encoder/bi_rnn_1/bidirectional_1/while/mul_2:0\nOhierarchical_attention_model/doc_encoder/bi_rnn_1/bidirectional_1/while/mul_3:0\nOhierarchical_attention_model/doc_encoder/bi_rnn_1/bidirectional_1/while/mul_4:0\n]hierarchical_attention_model/doc_encoder/bi_rnn_1/bidirectional_1/while/strided_slice/stack:0\n_hierarchical_attention_model/doc_encoder/bi_rnn_1/bidirectional_1/while/strided_slice/stack_1:0\n_hierarchical_attention_model/doc_encoder/bi_rnn_1/bidirectional_1/while/strided_slice/stack_2:0\nWhierarchical_attention_model/doc_encoder/bi_rnn_1/bidirectional_1/while/strided_slice:0\n_hierarchical_attention_model/doc_encoder/bi_rnn_1/bidirectional_1/while/strided_slice_1/stack:0\nahierarchical_attention_model/doc_encoder/bi_rnn_1/bidirectional_1/while/strided_slice_1/stack_1:0\nahierarchical_attention_model/doc_encoder/bi_rnn_1/bidirectional_1/while/strided_slice_1/stack_2:0\nYhierarchical_attention_model/doc_encoder/bi_rnn_1/bidirectional_1/while/strided_slice_1:0\n_hierarchical_attention_model/doc_encoder/bi_rnn_1/bidirectional_1/while/strided_slice_2/stack:0\nahierarchical_attention_model/doc_encoder/bi_rnn_1/bidirectional_1/while/strided_slice_2/stack_1:0\nahierarchical_attention_model/doc_encoder/bi_rnn_1/bidirectional_1/while/strided_slice_2/stack_2:0\nYhierarchical_attention_model/doc_encoder/bi_rnn_1/bidirectional_1/while/strided_slice_2:0\n_hierarchical_attention_model/doc_encoder/bi_rnn_1/bidirectional_1/while/strided_slice_3/stack:0\nahierarchical_attention_model/doc_encoder/bi_rnn_1/bidirectional_1/while/strided_slice_3/stack_1:0\nahierarchical_attention_model/doc_encoder/bi_rnn_1/bidirectional_1/while/strided_slice_3/stack_2:0\nYhierarchical_attention_model/doc_encoder/bi_rnn_1/bidirectional_1/while/strided_slice_3:0\n_hierarchical_attention_model/doc_encoder/bi_rnn_1/bidirectional_1/while/strided_slice_4/stack:0\nahierarchical_attention_model/doc_encoder/bi_rnn_1/bidirectional_1/while/strided_slice_4/stack_1:0\nahierarchical_attention_model/doc_encoder/bi_rnn_1/bidirectional_1/while/strided_slice_4/stack_2:0\nYhierarchical_attention_model/doc_encoder/bi_rnn_1/bidirectional_1/while/strided_slice_4:0\n_hierarchical_attention_model/doc_encoder/bi_rnn_1/bidirectional_1/while/strided_slice_5/stack:0\nahierarchical_attention_model/doc_encoder/bi_rnn_1/bidirectional_1/while/strided_slice_5/stack_1:0\nahierarchical_attention_model/doc_encoder/bi_rnn_1/bidirectional_1/while/strided_slice_5/stack_2:0\nYhierarchical_attention_model/doc_encoder/bi_rnn_1/bidirectional_1/while/strided_slice_5:0\n_hierarchical_attention_model/doc_encoder/bi_rnn_1/bidirectional_1/while/strided_slice_6/stack:0\nahierarchical_attention_model/doc_encoder/bi_rnn_1/bidirectional_1/while/strided_slice_6/stack_1:0\nahierarchical_attention_model/doc_encoder/bi_rnn_1/bidirectional_1/while/strided_slice_6/stack_2:0\nYhierarchical_attention_model/doc_encoder/bi_rnn_1/bidirectional_1/while/strided_slice_6:0\n_hierarchical_attention_model/doc_encoder/bi_rnn_1/bidirectional_1/while/strided_slice_7/stack:0\nahierarchical_attention_model/doc_encoder/bi_rnn_1/bidirectional_1/while/strided_slice_7/stack_1:0\nahierarchical_attention_model/doc_encoder/bi_rnn_1/bidirectional_1/while/strided_slice_7/stack_2:0\nYhierarchical_attention_model/doc_encoder/bi_rnn_1/bidirectional_1/while/strided_slice_7:0\n_hierarchical_attention_model/doc_encoder/bi_rnn_1/bidirectional_1/while/strided_slice_8/stack:0\nahierarchical_attention_model/doc_encoder/bi_rnn_1/bidirectional_1/while/strided_slice_8/stack_1:0\nahierarchical_attention_model/doc_encoder/bi_rnn_1/bidirectional_1/while/strided_slice_8/stack_2:0\nYhierarchical_attention_model/doc_encoder/bi_rnn_1/bidirectional_1/while/strided_slice_8:0\nOhierarchical_attention_model/doc_encoder/bi_rnn_1/bidirectional_1/while/sub/x:0\nMhierarchical_attention_model/doc_encoder/bi_rnn_1/bidirectional_1/while/sub:0\022\272\001\nXhierarchical_attention_model/doc_encoder/bi_rnn_1/bidirectional_1/forward_gru_1/kernel:0\022^hierarchical_attention_model/doc_encoder/bi_rnn_1/bidirectional_1/while/ReadVariableOp/Enter:0\022\272\001\nVhierarchical_attention_model/doc_encoder/bi_rnn_1/bidirectional_1/forward_gru_1/bias:0\022`hierarchical_attention_model/doc_encoder/bi_rnn_1/bidirectional_1/while/ReadVariableOp_3/Enter:0\022\345\001\n~hierarchical_attention_model/doc_encoder/bi_rnn_1/bidirectional_1/TensorArrayUnstack/TensorArrayScatter/TensorArrayScatterV3:0\022chierarchical_attention_model/doc_encoder/bi_rnn_1/bidirectional_1/while/TensorArrayReadV3/Enter_1:0\022\264\001\n\\hierarchical_attention_model/doc_encoder/bi_rnn_1/bidirectional_1/while/maximum_iterations:0\022Thierarchical_attention_model/doc_encoder/bi_rnn_1/bidirectional_1/while/Less/Enter:0\022\255\001\nShierarchical_attention_model/doc_encoder/bi_rnn_1/bidirectional_1/strided_slice_1:0\022Vhierarchical_attention_model/doc_encoder/bi_rnn_1/bidirectional_1/while/Less_1/Enter:0\022\310\001\nQhierarchical_attention_model/doc_encoder/bi_rnn_1/bidirectional_1/TensorArray_1:0\022shierarchical_attention_model/doc_encoder/bi_rnn_1/bidirectional_1/while/TensorArrayWrite/TensorArrayWriteV3/Enter:0\022\306\001\nbhierarchical_attention_model/doc_encoder/bi_rnn_1/bidirectional_1/forward_gru_1/recurrent_kernel:0\022`hierarchical_attention_model/doc_encoder/bi_rnn_1/bidirectional_1/while/ReadVariableOp_6/Enter:0\022\264\001\nOhierarchical_attention_model/doc_encoder/bi_rnn_1/bidirectional_1/TensorArray:0\022ahierarchical_attention_model/doc_encoder/bi_rnn_1/bidirectional_1/while/TensorArrayReadV3/Enter:0ROhierarchical_attention_model/doc_encoder/bi_rnn_1/bidirectional_1/while/Enter:0RQhierarchical_attention_model/doc_encoder/bi_rnn_1/bidirectional_1/while/Enter_1:0RQhierarchical_attention_model/doc_encoder/bi_rnn_1/bidirectional_1/while/Enter_2:0RQhierarchical_attention_model/doc_encoder/bi_rnn_1/bidirectional_1/while/Enter_3:0Z\\hierarchical_attention_model/doc_encoder/bi_rnn_1/bidirectional_1/while/maximum_iterations:0"
        value: "\nWhierarchical_attention_model/doc_encoder/bi_rnn_1/bidirectional_1/while_1/while_context\020 \030\001 \001*Thierarchical_attention_model/doc_encoder/bi_rnn_1/bidirectional_1/while_1/LoopCond:02Qhierarchical_attention_model/doc_encoder/bi_rnn_1/bidirectional_1/while_1/Merge:0:Thierarchical_attention_model/doc_encoder/bi_rnn_1/bidirectional_1/while_1/Identity:0BPhierarchical_attention_model/doc_encoder/bi_rnn_1/bidirectional_1/while_1/Exit:0BRhierarchical_attention_model/doc_encoder/bi_rnn_1/bidirectional_1/while_1/Exit_1:0BRhierarchical_attention_model/doc_encoder/bi_rnn_1/bidirectional_1/while_1/Exit_2:0BRhierarchical_attention_model/doc_encoder/bi_rnn_1/bidirectional_1/while_1/Exit_3:0J\370n\n\200\001hierarchical_attention_model/doc_encoder/bi_rnn_1/bidirectional_1/TensorArrayUnstack_1/TensorArrayScatter/TensorArrayScatterV3:0\nQhierarchical_attention_model/doc_encoder/bi_rnn_1/bidirectional_1/TensorArray_2:0\nQhierarchical_attention_model/doc_encoder/bi_rnn_1/bidirectional_1/TensorArray_3:0\nWhierarchical_attention_model/doc_encoder/bi_rnn_1/bidirectional_1/backward_gru_1/bias:0\nYhierarchical_attention_model/doc_encoder/bi_rnn_1/bidirectional_1/backward_gru_1/kernel:0\nchierarchical_attention_model/doc_encoder/bi_rnn_1/bidirectional_1/backward_gru_1/recurrent_kernel:0\nThierarchical_attention_model/doc_encoder/bi_rnn_1/bidirectional_1/strided_slice_14:0\nQhierarchical_attention_model/doc_encoder/bi_rnn_1/bidirectional_1/while_1/Add_2:0\nQhierarchical_attention_model/doc_encoder/bi_rnn_1/bidirectional_1/while_1/Add_4:0\nShierarchical_attention_model/doc_encoder/bi_rnn_1/bidirectional_1/while_1/BiasAdd:0\nUhierarchical_attention_model/doc_encoder/bi_rnn_1/bidirectional_1/while_1/BiasAdd_1:0\nUhierarchical_attention_model/doc_encoder/bi_rnn_1/bidirectional_1/while_1/BiasAdd_2:0\nQhierarchical_attention_model/doc_encoder/bi_rnn_1/bidirectional_1/while_1/Const:0\nShierarchical_attention_model/doc_encoder/bi_rnn_1/bidirectional_1/while_1/Const_1:0\nShierarchical_attention_model/doc_encoder/bi_rnn_1/bidirectional_1/while_1/Const_2:0\nShierarchical_attention_model/doc_encoder/bi_rnn_1/bidirectional_1/while_1/Const_3:0\nQhierarchical_attention_model/doc_encoder/bi_rnn_1/bidirectional_1/while_1/Enter:0\nShierarchical_attention_model/doc_encoder/bi_rnn_1/bidirectional_1/while_1/Enter_1:0\nShierarchical_attention_model/doc_encoder/bi_rnn_1/bidirectional_1/while_1/Enter_2:0\nShierarchical_attention_model/doc_encoder/bi_rnn_1/bidirectional_1/while_1/Enter_3:0\nPhierarchical_attention_model/doc_encoder/bi_rnn_1/bidirectional_1/while_1/Exit:0\nRhierarchical_attention_model/doc_encoder/bi_rnn_1/bidirectional_1/while_1/Exit_1:0\nRhierarchical_attention_model/doc_encoder/bi_rnn_1/bidirectional_1/while_1/Exit_2:0\nRhierarchical_attention_model/doc_encoder/bi_rnn_1/bidirectional_1/while_1/Exit_3:0\nThierarchical_attention_model/doc_encoder/bi_rnn_1/bidirectional_1/while_1/Identity:0\nVhierarchical_attention_model/doc_encoder/bi_rnn_1/bidirectional_1/while_1/Identity_1:0\nVhierarchical_attention_model/doc_encoder/bi_rnn_1/bidirectional_1/while_1/Identity_2:0\nVhierarchical_attention_model/doc_encoder/bi_rnn_1/bidirectional_1/while_1/Identity_3:0\nVhierarchical_attention_model/doc_encoder/bi_rnn_1/bidirectional_1/while_1/Less/Enter:0\nPhierarchical_attention_model/doc_encoder/bi_rnn_1/bidirectional_1/while_1/Less:0\nXhierarchical_attention_model/doc_encoder/bi_rnn_1/bidirectional_1/while_1/Less_1/Enter:0\nRhierarchical_attention_model/doc_encoder/bi_rnn_1/bidirectional_1/while_1/Less_1:0\nVhierarchical_attention_model/doc_encoder/bi_rnn_1/bidirectional_1/while_1/LogicalAnd:0\nThierarchical_attention_model/doc_encoder/bi_rnn_1/bidirectional_1/while_1/LoopCond:0\nRhierarchical_attention_model/doc_encoder/bi_rnn_1/bidirectional_1/while_1/MatMul:0\nThierarchical_attention_model/doc_encoder/bi_rnn_1/bidirectional_1/while_1/MatMul_1:0\nThierarchical_attention_model/doc_encoder/bi_rnn_1/bidirectional_1/while_1/MatMul_2:0\nThierarchical_attention_model/doc_encoder/bi_rnn_1/bidirectional_1/while_1/MatMul_3:0\nThierarchical_attention_model/doc_encoder/bi_rnn_1/bidirectional_1/while_1/MatMul_4:0\nThierarchical_attention_model/doc_encoder/bi_rnn_1/bidirectional_1/while_1/MatMul_5:0\nQhierarchical_attention_model/doc_encoder/bi_rnn_1/bidirectional_1/while_1/Merge:0\nQhierarchical_attention_model/doc_encoder/bi_rnn_1/bidirectional_1/while_1/Merge:1\nShierarchical_attention_model/doc_encoder/bi_rnn_1/bidirectional_1/while_1/Merge_1:0\nShierarchical_attention_model/doc_encoder/bi_rnn_1/bidirectional_1/while_1/Merge_1:1\nShierarchical_attention_model/doc_encoder/bi_rnn_1/bidirectional_1/while_1/Merge_2:0\nShierarchical_attention_model/doc_encoder/bi_rnn_1/bidirectional_1/while_1/Merge_2:1\nShierarchical_attention_model/doc_encoder/bi_rnn_1/bidirectional_1/while_1/Merge_3:0\nShierarchical_attention_model/doc_encoder/bi_rnn_1/bidirectional_1/while_1/Merge_3:1\nOhierarchical_attention_model/doc_encoder/bi_rnn_1/bidirectional_1/while_1/Mul:0\nQhierarchical_attention_model/doc_encoder/bi_rnn_1/bidirectional_1/while_1/Mul_1:0\nYhierarchical_attention_model/doc_encoder/bi_rnn_1/bidirectional_1/while_1/NextIteration:0\n[hierarchical_attention_model/doc_encoder/bi_rnn_1/bidirectional_1/while_1/NextIteration_1:0\n[hierarchical_attention_model/doc_encoder/bi_rnn_1/bidirectional_1/while_1/NextIteration_2:0\n[hierarchical_attention_model/doc_encoder/bi_rnn_1/bidirectional_1/while_1/NextIteration_3:0\n`hierarchical_attention_model/doc_encoder/bi_rnn_1/bidirectional_1/while_1/ReadVariableOp/Enter:0\nZhierarchical_attention_model/doc_encoder/bi_rnn_1/bidirectional_1/while_1/ReadVariableOp:0\n\\hierarchical_attention_model/doc_encoder/bi_rnn_1/bidirectional_1/while_1/ReadVariableOp_1:0\n\\hierarchical_attention_model/doc_encoder/bi_rnn_1/bidirectional_1/while_1/ReadVariableOp_2:0\nbhierarchical_attention_model/doc_encoder/bi_rnn_1/bidirectional_1/while_1/ReadVariableOp_3/Enter:0\n\\hierarchical_attention_model/doc_encoder/bi_rnn_1/bidirectional_1/while_1/ReadVariableOp_3:0\n\\hierarchical_attention_model/doc_encoder/bi_rnn_1/bidirectional_1/while_1/ReadVariableOp_4:0\n\\hierarchical_attention_model/doc_encoder/bi_rnn_1/bidirectional_1/while_1/ReadVariableOp_5:0\nbhierarchical_attention_model/doc_encoder/bi_rnn_1/bidirectional_1/while_1/ReadVariableOp_6/Enter:0\n\\hierarchical_attention_model/doc_encoder/bi_rnn_1/bidirectional_1/while_1/ReadVariableOp_6:0\n\\hierarchical_attention_model/doc_encoder/bi_rnn_1/bidirectional_1/while_1/ReadVariableOp_7:0\n\\hierarchical_attention_model/doc_encoder/bi_rnn_1/bidirectional_1/while_1/ReadVariableOp_8:0\nRhierarchical_attention_model/doc_encoder/bi_rnn_1/bidirectional_1/while_1/Switch:0\nRhierarchical_attention_model/doc_encoder/bi_rnn_1/bidirectional_1/while_1/Switch:1\nThierarchical_attention_model/doc_encoder/bi_rnn_1/bidirectional_1/while_1/Switch_1:0\nThierarchical_attention_model/doc_encoder/bi_rnn_1/bidirectional_1/while_1/Switch_1:1\nThierarchical_attention_model/doc_encoder/bi_rnn_1/bidirectional_1/while_1/Switch_2:0\nThierarchical_attention_model/doc_encoder/bi_rnn_1/bidirectional_1/while_1/Switch_2:1\nThierarchical_attention_model/doc_encoder/bi_rnn_1/bidirectional_1/while_1/Switch_3:0\nThierarchical_attention_model/doc_encoder/bi_rnn_1/bidirectional_1/while_1/Switch_3:1\nPhierarchical_attention_model/doc_encoder/bi_rnn_1/bidirectional_1/while_1/Tanh:0\nchierarchical_attention_model/doc_encoder/bi_rnn_1/bidirectional_1/while_1/TensorArrayReadV3/Enter:0\nehierarchical_attention_model/doc_encoder/bi_rnn_1/bidirectional_1/while_1/TensorArrayReadV3/Enter_1:0\n]hierarchical_attention_model/doc_encoder/bi_rnn_1/bidirectional_1/while_1/TensorArrayReadV3:0\nuhierarchical_attention_model/doc_encoder/bi_rnn_1/bidirectional_1/while_1/TensorArrayWrite/TensorArrayWriteV3/Enter:0\nohierarchical_attention_model/doc_encoder/bi_rnn_1/bidirectional_1/while_1/TensorArrayWrite/TensorArrayWriteV3:0\nQhierarchical_attention_model/doc_encoder/bi_rnn_1/bidirectional_1/while_1/add/y:0\nOhierarchical_attention_model/doc_encoder/bi_rnn_1/bidirectional_1/while_1/add:0\nQhierarchical_attention_model/doc_encoder/bi_rnn_1/bidirectional_1/while_1/add_1:0\nQhierarchical_attention_model/doc_encoder/bi_rnn_1/bidirectional_1/while_1/add_3:0\nQhierarchical_attention_model/doc_encoder/bi_rnn_1/bidirectional_1/while_1/add_5:0\nQhierarchical_attention_model/doc_encoder/bi_rnn_1/bidirectional_1/while_1/add_6:0\nShierarchical_attention_model/doc_encoder/bi_rnn_1/bidirectional_1/while_1/add_7/y:0\nQhierarchical_attention_model/doc_encoder/bi_rnn_1/bidirectional_1/while_1/add_7:0\nchierarchical_attention_model/doc_encoder/bi_rnn_1/bidirectional_1/while_1/clip_by_value/Minimum/y:0\nahierarchical_attention_model/doc_encoder/bi_rnn_1/bidirectional_1/while_1/clip_by_value/Minimum:0\n[hierarchical_attention_model/doc_encoder/bi_rnn_1/bidirectional_1/while_1/clip_by_value/y:0\nYhierarchical_attention_model/doc_encoder/bi_rnn_1/bidirectional_1/while_1/clip_by_value:0\nehierarchical_attention_model/doc_encoder/bi_rnn_1/bidirectional_1/while_1/clip_by_value_1/Minimum/y:0\nchierarchical_attention_model/doc_encoder/bi_rnn_1/bidirectional_1/while_1/clip_by_value_1/Minimum:0\n]hierarchical_attention_model/doc_encoder/bi_rnn_1/bidirectional_1/while_1/clip_by_value_1/y:0\n[hierarchical_attention_model/doc_encoder/bi_rnn_1/bidirectional_1/while_1/clip_by_value_1:0\n^hierarchical_attention_model/doc_encoder/bi_rnn_1/bidirectional_1/while_1/maximum_iterations:0\nQhierarchical_attention_model/doc_encoder/bi_rnn_1/bidirectional_1/while_1/mul_2:0\nQhierarchical_attention_model/doc_encoder/bi_rnn_1/bidirectional_1/while_1/mul_3:0\nQhierarchical_attention_model/doc_encoder/bi_rnn_1/bidirectional_1/while_1/mul_4:0\n_hierarchical_attention_model/doc_encoder/bi_rnn_1/bidirectional_1/while_1/strided_slice/stack:0\nahierarchical_attention_model/doc_encoder/bi_rnn_1/bidirectional_1/while_1/strided_slice/stack_1:0\nahierarchical_attention_model/doc_encoder/bi_rnn_1/bidirectional_1/while_1/strided_slice/stack_2:0\nYhierarchical_attention_model/doc_encoder/bi_rnn_1/bidirectional_1/while_1/strided_slice:0\nahierarchical_attention_model/doc_encoder/bi_rnn_1/bidirectional_1/while_1/strided_slice_1/stack:0\nchierarchical_attention_model/doc_encoder/bi_rnn_1/bidirectional_1/while_1/strided_slice_1/stack_1:0\nchierarchical_attention_model/doc_encoder/bi_rnn_1/bidirectional_1/while_1/strided_slice_1/stack_2:0\n[hierarchical_attention_model/doc_encoder/bi_rnn_1/bidirectional_1/while_1/strided_slice_1:0\nahierarchical_attention_model/doc_encoder/bi_rnn_1/bidirectional_1/while_1/strided_slice_2/stack:0\nchierarchical_attention_model/doc_encoder/bi_rnn_1/bidirectional_1/while_1/strided_slice_2/stack_1:0\nchierarchical_attention_model/doc_encoder/bi_rnn_1/bidirectional_1/while_1/strided_slice_2/stack_2:0\n[hierarchical_attention_model/doc_encoder/bi_rnn_1/bidirectional_1/while_1/strided_slice_2:0\nahierarchical_attention_model/doc_encoder/bi_rnn_1/bidirectional_1/while_1/strided_slice_3/stack:0\nchierarchical_attention_model/doc_encoder/bi_rnn_1/bidirectional_1/while_1/strided_slice_3/stack_1:0\nchierarchical_attention_model/doc_encoder/bi_rnn_1/bidirectional_1/while_1/strided_slice_3/stack_2:0\n[hierarchical_attention_model/doc_encoder/bi_rnn_1/bidirectional_1/while_1/strided_slice_3:0\nahierarchical_attention_model/doc_encoder/bi_rnn_1/bidirectional_1/while_1/strided_slice_4/stack:0\nchierarchical_attention_model/doc_encoder/bi_rnn_1/bidirectional_1/while_1/strided_slice_4/stack_1:0\nchierarchical_attention_model/doc_encoder/bi_rnn_1/bidirectional_1/while_1/strided_slice_4/stack_2:0\n[hierarchical_attention_model/doc_encoder/bi_rnn_1/bidirectional_1/while_1/strided_slice_4:0\nahierarchical_attention_model/doc_encoder/bi_rnn_1/bidirectional_1/while_1/strided_slice_5/stack:0\nchierarchical_attention_model/doc_encoder/bi_rnn_1/bidirectional_1/while_1/strided_slice_5/stack_1:0\nchierarchical_attention_model/doc_encoder/bi_rnn_1/bidirectional_1/while_1/strided_slice_5/stack_2:0\n[hierarchical_attention_model/doc_encoder/bi_rnn_1/bidirectional_1/while_1/strided_slice_5:0\nahierarchical_attention_model/doc_encoder/bi_rnn_1/bidirectional_1/while_1/strided_slice_6/stack:0\nchierarchical_attention_model/doc_encoder/bi_rnn_1/bidirectional_1/while_1/strided_slice_6/stack_1:0\nchierarchical_attention_model/doc_encoder/bi_rnn_1/bidirectional_1/while_1/strided_slice_6/stack_2:0\n[hierarchical_attention_model/doc_encoder/bi_rnn_1/bidirectional_1/while_1/strided_slice_6:0\nahierarchical_attention_model/doc_encoder/bi_rnn_1/bidirectional_1/while_1/strided_slice_7/stack:0\nchierarchical_attention_model/doc_encoder/bi_rnn_1/bidirectional_1/while_1/strided_slice_7/stack_1:0\nchierarchical_attention_model/doc_encoder/bi_rnn_1/bidirectional_1/while_1/strided_slice_7/stack_2:0\n[hierarchical_attention_model/doc_encoder/bi_rnn_1/bidirectional_1/while_1/strided_slice_7:0\nahierarchical_attention_model/doc_encoder/bi_rnn_1/bidirectional_1/while_1/strided_slice_8/stack:0\nchierarchical_attention_model/doc_encoder/bi_rnn_1/bidirectional_1/while_1/strided_slice_8/stack_1:0\nchierarchical_attention_model/doc_encoder/bi_rnn_1/bidirectional_1/while_1/strided_slice_8/stack_2:0\n[hierarchical_attention_model/doc_encoder/bi_rnn_1/bidirectional_1/while_1/strided_slice_8:0\nQhierarchical_attention_model/doc_encoder/bi_rnn_1/bidirectional_1/while_1/sub/x:0\nOhierarchical_attention_model/doc_encoder/bi_rnn_1/bidirectional_1/while_1/sub:0\022\275\001\nYhierarchical_attention_model/doc_encoder/bi_rnn_1/bidirectional_1/backward_gru_1/kernel:0\022`hierarchical_attention_model/doc_encoder/bi_rnn_1/bidirectional_1/while_1/ReadVariableOp/Enter:0\022\312\001\nQhierarchical_attention_model/doc_encoder/bi_rnn_1/bidirectional_1/TensorArray_3:0\022uhierarchical_attention_model/doc_encoder/bi_rnn_1/bidirectional_1/while_1/TensorArrayWrite/TensorArrayWriteV3/Enter:0\022\260\001\nThierarchical_attention_model/doc_encoder/bi_rnn_1/bidirectional_1/strided_slice_14:0\022Xhierarchical_attention_model/doc_encoder/bi_rnn_1/bidirectional_1/while_1/Less_1/Enter:0\022\275\001\nWhierarchical_attention_model/doc_encoder/bi_rnn_1/bidirectional_1/backward_gru_1/bias:0\022bhierarchical_attention_model/doc_encoder/bi_rnn_1/bidirectional_1/while_1/ReadVariableOp_3/Enter:0\022\270\001\nQhierarchical_attention_model/doc_encoder/bi_rnn_1/bidirectional_1/TensorArray_2:0\022chierarchical_attention_model/doc_encoder/bi_rnn_1/bidirectional_1/while_1/TensorArrayReadV3/Enter:0\022\311\001\nchierarchical_attention_model/doc_encoder/bi_rnn_1/bidirectional_1/backward_gru_1/recurrent_kernel:0\022bhierarchical_attention_model/doc_encoder/bi_rnn_1/bidirectional_1/while_1/ReadVariableOp_6/Enter:0\022\352\001\n\200\001hierarchical_attention_model/doc_encoder/bi_rnn_1/bidirectional_1/TensorArrayUnstack_1/TensorArrayScatter/TensorArrayScatterV3:0\022ehierarchical_attention_model/doc_encoder/bi_rnn_1/bidirectional_1/while_1/TensorArrayReadV3/Enter_1:0\022\270\001\n^hierarchical_attention_model/doc_encoder/bi_rnn_1/bidirectional_1/while_1/maximum_iterations:0\022Vhierarchical_attention_model/doc_encoder/bi_rnn_1/bidirectional_1/while_1/Less/Enter:0RQhierarchical_attention_model/doc_encoder/bi_rnn_1/bidirectional_1/while_1/Enter:0RShierarchical_attention_model/doc_encoder/bi_rnn_1/bidirectional_1/while_1/Enter_1:0RShierarchical_attention_model/doc_encoder/bi_rnn_1/bidirectional_1/while_1/Enter_2:0RShierarchical_attention_model/doc_encoder/bi_rnn_1/bidirectional_1/while_1/Enter_3:0Z^hierarchical_attention_model/doc_encoder/bi_rnn_1/bidirectional_1/while_1/maximum_iterations:0"
      }
    }
  }
  signature_def {
    key: "infer"
    value {
      inputs {
        key: "input_sentence"
        value {
          name: "input_sentence:0"
          dtype: DT_STRING
          tensor_shape {
            dim {
              size: -1
            }
          }
        }
      }
      outputs {
        key: "preds"
        value {
          name: "ArgMax:0"
          dtype: DT_INT64
          tensor_shape {
            dim {
              size: -1
            }
          }
        }
      }
      outputs {
        key: "score"
        value {
          name: "score:0"
          dtype: DT_FLOAT
          tensor_shape {
            dim {
              size: -1
            }
            dim {
              size: 2
            }
          }
        }
      }
      method_name: "tensorflow/serving/predict"
    }
  }
}
